S1/model/stage1_model.pth (torch, 112789 bytes, 9 tensors)

net.1.weight f4 [128, 77]
00000000: cbd0 b73c e837 5b3d 1d99 f2bd e86a 883c
00000010: 8f1d 2bba 8f59 29bd 3e02 9dbb d286 00bb
00000020: 8ca8 833d f116 783d 1f71 c53d 16b9 7d3d
00000030: 65a1 1f3c ff5b 533d 50c9 9fbd edc9 b23c
00000040: c250 f13d 00ba 9a3d 3640 423d f383 663e
00000050: 725f 7bbd 34e2 d53d 1e23 573d b92c c83d
00000060: 443a ec3d 3014 9ebc 0e82 143e b545 dd3d
00000070: a18b 0b3d cb4b 053e a7f4 593d 40c4 2983
00000080: d9a4 c93d 5cd3 e002 d484 eabd 4e8a 13bd
00000090: 970d 1bbd 9f8e 87be 3e49 123d d153 2fbd
000000a0: 090b b13d e786 2dbd e0a6 623b d7d9 e63d
000000b0: 5b8a ba3d a9ec 223e 97d6 5fbd 23f8 00bd
000000c0: fc47 0b3e 2494 b5bc 0d49 87bb 0b36 af3c
000000d0: a94f 38bd 59bf 26bd 522e 8abc 4868 0e03
000000e0: baa2 4683 e020 9302 d455 55bd 2136 efbd
000000f0: 7680 ddbd 4839 043b d12a dcba a17c afbc
00000100: 6f77 17ba 36b5 133e fbb4 7cbd 16ea b6bd
00000110: 09be 053d 06de ffbd 5b82 f5bc 35e1 e1bd
00000120: 3459 753c 47c4 e33d 9f74 61bd a7e8 693d
00000130: abc9 463d d56f 903c 1a7b aa3d 7b97 84bc
00000140: a0c0 2ebd e58e e83d e283 f53d 6595 253e
00000150: b410 f63b 26a2 c13d 00c2 113d 01fd 89bc
00000160: 50e6 b3bd 89c3 b0bc 93fc c0bc c450 623c
00000170: fef2 0dbd 536e 62be c1b6 f93c 4caa 8bbc
00000180: 6845 49be cce4 5f3c c598 13be 3828 0b3d
00000190: 26de a0bd 9498 5dbe 144a 523e 2fd4 433d
000001a0: 3841 a13d 3922 b33d 3b1c d93c dc6a 033c
000001b0: 08cc d682 6c23 9f3b 7759 6b03 3c94 f23d
000001c0: 4f11 0f3e 4153 333e d632 a13d 5f10 1cbc
000001d0: 71cd 49bd badd 1d3d a7eb 35bb 958b e8bc
000001e0: 9a8b 87bd 76d2 b4be 93fd 43be 017e 0f3e
000001f0: 3c08 c03d 930c d4bd 3cf6 e5bd 5f26 bcbd
00000200: cd5b c73d cf9d 6fbd e029 a03d f5a6 283c
00000210: 489d 9682 aef6 7683 6675 0902 48ce bf3d
00000220: a867 853e b9a2 673e fc12 3abd 7f35 773c
00000230: 63f1 803d 9637 e03b 5202 18bd 461a d33d
00000240: 5dd0 153e 60b8 f83d 3d6c 21bc 54fc 8e3d
00000250: a783 9f3d 7a1b f63c e821 61bd aee1 a3bd
00000260: 4b26 1dbe 2e79 10be 4f39 28bd ee83 bfbd
00000270: a6fc 933d b184 01bb 9562 ee3b c2e6 9d3c
00000280: 2efe 3e3b de41 a138 455b d5bd 6578 82bd
00000290: 333a 203c e689 c33d aff9 153e ee69 253e
000002a0: 1f0d 123e 0783 0dba cb16 7e3d 164a e1bd
000002b0: 3ebc a9bd 0ec0 5d3d 8530 82bd 985f edbd
000002c0: 89ff f1bc 58aa 11bc f4e8 c2bd 003f ca3d
000002d0: a5f9 0d3e bff1 ef3b 4ecc be3d 6b50 813c
000002e0: 22bc d33d 4674 fc02 4aba fbbc 99a2 c782
000002f0: 8aa6 1d3d aaf6 1f3b 1dca 003e f1e3 323e
00000300: 0914 183e eb4b babd d157 c43d ad4f fb3c
00000310: 1567 a3bd 2e18 88bd 92db cabd c0be 5abd
00000320: a964 bb3c 6ea8 a93c 0a4d 713c b4eb 38be
00000330: 5475 05be ef11 0ebe 0350 05bc c3f8 01be
00000340: 3994 063e 8e8c 0e03 ec4b 2503 300d 3682
00000350: 657e 3d3c 08a6 983c 1979 8a3c d49b bab9
00000360: e7cb eb3a beaf 30bc 797f 4bbb f781 4a3d
00000370: 26f3 ba3d 7bb2 903c ffa3 b33d a6e4 e6bc
00000380: 92bb ba3b 338b 1e3d b136 edbc 38aa d43d
00000390: 2511 a7bd 15e8 a33d 15ae 5d3d 00e9 f33c
000003a0: 5593 483d 1912 783d 3a65 e13c 5e27 103c
000003b0: f200 7f3d 6159 833c 2153 f6ba f566 49bd
000003c0: 5a71 e0bd fcc5 243d 552d bfbd 35c8 ebbc
000003d0: 2e5d c0bc 228c b23d 5b19 943c 82bd 41bd
000003e0: 0c0b d53d 9e81 c7bc d55b 4abe 9b17 f7bc
000003f0: b4a0 2abe c441 bc3c 7c35 f5bd a21a 45be
0.022438427 0.053520113 -0.1184561 0.01665254 -0.0006527537 -0.041345175 -0.004791527 -0.001961161
0.06428632 0.060568754 0.09640717 0.06194409 0.009743069 0.051601406 -0.07802069 0.021824801
0.117829815 0.07555008 0.047424518 0.22511272 -0.06137032 0.104435354 0.052523725 0.09774155
0.11534551 -0.019296736 0.14502737 0.10804311 0.034068707 0.13017194 0.053211834 -4.988992e-37
0.09845895 3.3035156e-37 -0.11451116 -0.03602057 -0.037854757 -0.26476 0.03571438 -0.042804543
0.08644683 -0.04236498 0.0034584329 0.112720184 0.091084205 0.15910591 -0.05464801 -0.03148664
0.13601679 -0.022165366 -0.0041285814 0.021388074 -0.044997845 -0.040709827 -0.01686779 4.184976e-37
-5.837377e-37 2.1618578e-37 -0.052083805 -0.11680246 -0.108155176 0.0020175744 -0.0016797428 -0.021421732
-0.000577799 0.14424595 -0.061696034 -0.08931367 0.032651935 -0.124935195 -0.029969385 -0.11029283
0.014974881 0.11121421 -0.05504286 0.05710664 0.04853217 0.01763145 0.08324261 -0.016185513
-0.04266417 0.1135538 0.11988045 0.1617027 0.0075093154 0.094547555 0.035585403 -0.016844274
-0.08784163 -0.021577613 -0.023557937 0.013813201 -0.034655564 -0.22112398 0.030482652 -0.017048977
-0.19655383 0.013665389 -0.14413746 0.033973902 -0.078548715 -0.21640235 0.20536071 0.047809776
0.078737676 0.08746762 0.02650272 0.008021083 -3.1561582e-37 0.0048565175 6.9162994e-37 0.1184468
0.13971446 0.17512228 0.07871024 -0.009525388 -0.04926819 0.038541533 -0.0027758868 -0.02838687
-0.06618424 -0.3531682 -0.191397 0.1401291 0.093765706 -0.10353961 -0.11228606 -0.09187006
0.097343065 -0.058500107 0.07820487 0.010293712 -2.2130794e-37 -7.2576077e-37 1.0098862e-37 0.09365517
0.26055646 0.22620668 -0.04542826 0.015088438 0.06296041 0.006842564 -0.037111588 0.10307746
0.14630266 0.12144542 -0.009852466 0.069817215 0.077887826 0.030042399 -0.054963976 -0.08002029
-0.15346639 -0.14108726 -0.04107028 -0.093513355 0.07225923 -0.0019762928 0.0072749355 0.019275073
0.0029143202 7.689347e-05 -0.10417799 -0.0637062 0.009779501 0.095477864 0.14646028 0.1615369
0.14262818 -0.0005398248 0.062033456 -0.11000459 -0.082878575 0.054138236 -0.063569106 -0.11590499
-0.029540794 -0.008890711 -0.095170885 0.098752975 0.13864763 0.0073225196 0.09316312 0.015785417
0.10338618 3.709481e-37 -0.030728478 -2.9333748e-37 0.038488902 0.0024408498 0.125771 0.17469765
0.14851393 -0.090965115 0.09587062 0.03067764 -0.07978646 -0.06645237 -0.09905161 -0.05340457
0.022875147 0.020710196 0.01472784 -0.18058664 -0.13033038 -0.13874029 -0.008136752 -0.12692551
0.1314248 4.18914e-37 4.8576296e-37 -1.3375033e-37 0.011565779 0.018633857 0.016903447 -0.00035592786
0.0017989845 -0.010784088 -0.0031051321 0.04944035 0.09128408 0.017663231 0.08771514 -0.0281852
0.0056986297 0.03870697 -0.028956743 0.10384029 -0.08157567 0.080032505 0.054121096 0.029774189
0.04896863 0.060564134 0.027514089 0.008798448 0.06225676 0.01603383 -0.0018793085 -0.049170453
-0.1095912 0.040227875 -0.09334818 -0.02878199 -0.023481932 0.087181345 0.018078497 -0.04729987
0.10402498 -0.024353798 -0.19761594 -0.030162623 -0.16662866 0.022980578 -0.11973092 -0.19248441

net.1.bias f4 [128]
00000000: a2d8 793b e995 bcbd 72f4 e03c 0203 83bd
00000010: a5a2 c73d 03a7 983d d856 823d aa39 453d
00000020: 47d1 99bd 96ed ccbc da32 a23d 69d3 a8bd
00000030: 76ae 883d f00b 513a 3207 b0bc 1a35 1abd
00000040: 6298 adbd 8127 bfbc 4505 98bd 692e 483c
00000050: 92dd fabc 4d60 633d 933e 0fbd b6ed 653d
00000060: 3bed c63d 6203 9abc d7ef 39bd b130 b93d
00000070: 5eb8 923d 982f d93d bbe1 4ebd 894a 9abd
00000080: 4729 d53d 445c 1fbd 7b19 bb3c cf12 d73d
00000090: 3242 3b3d 0772 d4bd d956 a13c 9fe0 133d
000000a0: 8a2a cbbb 11cf 8f3d c9d1 c5bd 3984 cbbd
000000b0: df20 c03d a9d8 a03d 27de aab9 99fb 8bba
000000c0: 5e18 c73d 0d1e 893d 1d65 803c adb2 15bd
000000d0: aec9 0dbd 1818 6cbd 2a44 863d 9dcb 94bd
000000e0: 5ecb 77bd f77d ca3d f9c4 71bd 7ffe e8bd
000000f0: ffa3 443d bc6f 28bd 0eb6 c83c d750 2b3d
00000100: dfa3 b7bd 526b ad3d 1132 47bd 294c 4fbd
00000110: e972 893a 58d1 373d ae8f 7e3d 4254 053d
00000120: 9d7d c9bc 62d5 ae3d 1578 1e3d 14ad 0b3d
00000130: 2535 6dbd 02b3 8f3d e439 563d 2e0a 1b3d
00000140: 2486 3a3d 6bbb c63c 396e 913d 187e b33d
00000150: 95b1 45bd bd1c b3bc 100e 86bd c02d 16bb
00000160: 0c97 003d 6e4c 803b 93b1 36bd d845 d3bc
00000170: 98eb e03d 27a3 91bd 16d6 a93d d069 863d
00000180: 4448 2d3d 47fd 833d 5317 d03d 8366 6c3d
00000190: 3eb9 81bd 0564 b73d 250e 903d fac4 28bd
000001a0: ee5c 6e3d 1b60 20bd 4074 6cbd 6f45 5f3c
000001b0: 2144 eebd d15e ba3d 4b9f 0bbd d9e5 66bd
000001c0: 5edd edbb ec45 20bd f53d bd3d 1507 d43c
000001d0: 1285 18bd 0cf8 a0bb f313 81bd 4618 e6bc
000001e0: 95c5 b13d 68e1 a23d d864 e73d 0e33 12bd
000001f0: 106f bd3d 0c0b 51bc be67 8abc 0e02 013c
0.0038123508 -0.092082806 0.02746031 -0.06397058 0.09747819 0.0745373 0.063642204 0.048150696
-0.075106196 -0.025015634 0.079198554 -0.08243448 0.06673901 0.0007974496 -0.021487806 -0.037648298
-0.0847633 -0.023334267 -0.0742288 0.012218096 -0.030623231 0.05551176 -0.034971785 0.056134902
0.09713217 -0.018800441 -0.045394745 0.0904249 0.071640715 0.10604781 -0.050508242 -0.07533748
0.10408264 -0.03890635 0.022839298 0.10501634 0.045717426 -0.103733115 0.019694733 0.036102887
-0.0062001394 0.07021917 -0.09659154 -0.09937329 0.0938127 0.07853825 -0.00032590443 -0.001067984
0.097214445 0.06695185 0.015673215 -0.03654735 -0.034616165 -0.057640165 0.0655597 -0.07265399
-0.06049668 0.09887307 -0.05902574 -0.11376666 0.04800796 -0.041122183 0.024500873 0.04182514
-0.08966803 0.08467735 -0.04863173 -0.05060974 0.0010486516 0.04487738 0.062148742 0.032551058
-0.02459603 0.08536793 0.038688738 0.034100607 -0.05791201 0.07016565 0.052301303 0.037851505
0.045538083 0.02425929 0.071011014 0.08764285 -0.04826506 -0.02186429 -0.06545651 -0.0022915453
0.03139405 0.003915361 -0.04460294 -0.02579014 0.10982436 -0.07111197 0.08292787 0.06563151
0.042305246 0.06444793 0.10160699 0.05771495 -0.0633416 0.08954624 0.07033948 -0.041203476
0.058194093 -0.039154153 -0.057728052 0.013627394 -0.11634088 0.09100116 -0.03408746 -0.056371544
-0.007259055 -0.039129183 0.09240333 0.025882283 -0.03723628 -0.004912382 -0.06302633 -0.028087746
0.08680264 0.07953149 0.11298531 -0.03569322 0.09249699 -0.012758981 -0.016895171 0.007874025

net.2.weight f4 [128]
00000000: a270 823f c8d8 8c3f 9ac9 543f df0a 843f
00000010: 6740 4f3f f6e8 613f bb22 853f 284c 7f3f
00000020: 0a17 893f 371d 7d3f 6503 5c3f 3948 8c3f
00000030: dbf0 5f3f 5cdc 673f 98e8 5f3f aa93 783f
00000040: d312 7d3f 0dc6 6a3f 5573 723f 21a9 803f
00000050: 2a20 553f 452c 533f 326c 733f 588d 7c3f
00000060: 4505 703f 753f 6f3f 0dc9 8d3f 4d18 813f
00000070: c544 6e3f 7849 483f b90e 823f fbd3 883f
00000080: 29c7 443f dec1 8b3f 6027 2d3f cabd 6d3f
00000090: 6fb5 803f bd6a 8b3f 446d 703f a636 8b3f
000000a0: 00ab 603f 4411 7e3f bf5a 883f 7c3b 823f
000000b0: 76fc 643f 7543 6d3f 3fea 633f 7806 703f
000000c0: 985a 483f 0b1b 713f fcf6 6e3f daf2 743f
000000d0: b422 7b3f f9a6 753f 825d 653f 41a5 843f
000000e0: 5413 7a3f e6ca 4e3f 4e3d 873f eaea 793f
000000f0: b08b 5e3f 5e45 653f 3436 4a3f 76a1 5d3f
00000100: 780e 893f 8910 3c3f 1238 813f 5f85 723f
00000110: 8047 653f b066 893f 2476 583f 67e0 6d3f
00000120: ba33 783f cfe8 783f 7414 613f 531d 703f
00000130: a50a 913f d920 643f 038d 393f c572 6d3f
00000140: 0aa2 633f 2279 803f 9902 543f 7952 573f
00000150: f64d 843f f94b 853f 6352 7c3f d209 7a3f
00000160: 31bb 523f 7cb8 673f 13a3 7a3f f59f 6b3f
00000170: e6b7 623f 4ff7 7c3f 0052 613f f48e 803f
00000180: 07bf 5b3f b183 5f3f 9d9d 583f 8031 563f
00000190: cddc 863f e8fb 5c3f 23eb 7b3f ccd8 773f
000001a0: 5141 643f e842 793f ce01 823f d20a 663f
000001b0: 0d97 8e3f e54c 723f 5c4c 823f c981 8c3f
000001c0: 79b9 583f 4052 803f 7f9a 4a3f c5a5 633f
000001d0: 8c04 833f 4c73 653f 7dd0 863f 1c01 743f
000001e0: b8e1 6e3f a7b2 4d3f 112c 5e3f 528c 873f
000001f0: 2ea2 6a3f bc3d 6e3f d2cc 6a3f 5296 633f
1.0190623 1.1003656 0.8312012 1.0315818 0.80957645 0.88246095 1.0401224 0.9972558
1.0710156 0.98872703 0.8594268 1.0959541 0.8747689 0.90570617 0.87464285 0.9710032
0.9885685 0.9170845 0.9470723 1.0051614 0.83252203 0.82489425 0.9508697 0.98653173
0.9375804 0.934562 1.1076981 1.0085541 0.93073684 0.78237104 1.0160743 1.0689691
0.76866394 1.0918539 0.67638206 0.9286772 1.0055369 1.0891949 0.93916726 1.0876052
0.87760925 0.99245095 1.0652694 1.0174403 0.89447725 0.92681056 0.89029306 0.9375987
0.78263235 0.9418189 0.9334562 0.9568306 0.9809983 0.95957905 0.89595807 1.0362931
0.9768574 0.8077835 1.0565584 0.97624075 0.86931896 0.8955897 0.7898896 0.86574495
1.070754 0.7346273 1.0095236 0.9473476 0.89562225 1.0734463 0.8455527 0.92920536
0.9695393 0.9723024 0.87921834 0.93794745 1.1331373 0.8911262 0.7248079 0.9275325
0.88919127 1.0036967 0.82816464 0.8411022 1.0336292 1.041381 0.9856321 0.97671235
0.8231688 0.90515876 0.9790508 0.9204095 0.88561857 0.9881486 0.8801575 1.0043626
0.8583836 0.8731032 0.846155 0.8366928 1.0536133 0.8632188 0.98405665 0.9681518
0.89162165 0.97367716 1.0156801 0.8986026 1.1139847 0.9464858 1.0179553 1.0977107
0.8465801 1.0025101 0.7914199 0.8892482 1.0235763 0.89629054 1.0532376 0.9531419
0.9331317 0.80350727 0.8678599 1.0589697 0.91653717 0.9306295 0.9171878 0.88901246

net.2.bias f4 [128]
00000000: 6f20 6cbd 6014 84bc 752a ffbd b131 27bd
00000010: 3835 31be 2dd5 0ebe c81b d4bd 9677 83bd
00000020: e094 80bd eefd 94bd c62d 04be 29cd ba3c
00000030: 9cab 0fbe fa34 b2bd 7e33 97bd 1933 a6bd
00000040: b8e0 93bd ae8e 90bd d460 50bd b35e f7bc
00000050: a995 e1bd 7649 f6bd ed9a 20be 8964 3fbd
00000060: 7079 6abd 945a cdbd c5cd 803b 1888 9bbd
00000070: 4a5a c0bd fe99 e3bd ba8e 54bd c81b 15bd
00000080: f8d7 67be d3d2 66bd 6dd0 2dbe ecae aabd
00000090: c730 96bd a4bd 7abd a71d c7bd 8acd 6cbd
000000a0: 08c6 8ebd 1963 b6bd 1182 a9bd 3f85 27bd
000000b0: f263 0fbe b944 9cbd a20b b3bd c9a1 85bd
000000c0: 4703 43be ead3 f6bd a0ee 9cbd 1527 9bbd
000000d0: 45bd 5cbd 622b 8bbd df1f 84bd dcde 29bd
000000e0: 3a7e 80bc 12c3 12be f730 d1bc a23a 00be
000000f0: 76e9 afbd bc02 bebd 17b2 26be 9007 33be
00000100: 1991 35bd ae06 2fbe b800 27bd 1959 47bd
00000110: 426a 19be aad9 55bd de8a c7bd cc84 cebd
00000120: ee40 8dbd af87 8fbd c192 cdbd 41c7 bebd
00000130: 71e2 adbc 3ac9 eabd 0f8c 26be f6df 97bd
00000140: cf36 e0bd 91bf 5dbd 1a85 0ebe ea81 2dbe
00000150: e626 21bd 5106 1bbd a0a5 7dbd 6c82 78bd
00000160: e050 afbd ee76 09be 9b30 6cbd 119f 8fbd
00000170: f695 d0bd 0623 80bd 0187 fabd cc5c 73bd
00000180: 15a2 d7bd e121 1cbe 1ee9 e5bd 7d29 1fbe
00000190: 9a70 07bd e793 2dbe 4bfe d4bd d8c4 7abd
000001a0: 5d2f 28be 29e3 a0bd 8361 35bd a1df d3bd
000001b0: 9ffe 47bd 317d b2bd 11f3 c43c 63ce 89bd
000001c0: 3e66 12be 6189 c1bd 5ede 06be 5ef3 d6bd
000001d0: a58e 8bbc 912b 22be c6fe 28bd ea35 ffbd
000001e0: 1150 08be 71ce 18be b060 0bbe 6db4 9fbd
000001f0: 5995 a5bd aa98 98bd 5186 07be e2ff f6bd
-0.05764812 -0.016122997 -0.1245927 -0.040818874 -0.17305458 -0.13948508 -0.10356861 -0.064192936
-0.06278396 -0.07274996 -0.12908086 0.022802906 -0.14030308 -0.08701511 -0.07382868 -0.08115215
-0.07220596 -0.07058464 -0.050873592 -0.030196523 -0.110148735 -0.1202573 -0.156841 -0.046726737
-0.057244718 -0.10027042 0.0039307796 -0.07594317 -0.09392221 -0.11113356 -0.051893927 -0.036403447
-0.2264098 -0.0563534 -0.1697404 -0.08334145 -0.07333522 -0.06121601 -0.097224526 -0.057813205
-0.06971365 -0.0890562 -0.08276761 -0.040898558 -0.1400297 -0.07630295 -0.08742453 -0.06524999
-0.19044219 -0.12052138 -0.076627016 -0.07575814 -0.05389144 -0.06795384 -0.064513914 -0.0414723
-0.01568519 -0.14332226 -0.025536044 -0.12522367 -0.08589451 -0.09277865 -0.16278873 -0.17483354
-0.04432783 -0.17092392 -0.04077217 -0.048668955 -0.1498194 -0.052209534 -0.09743284 -0.10083923
-0.0689715 -0.070083015 -0.10037757 -0.093153484 -0.02122614 -0.11464162 -0.16264366 -0.07415764
-0.10947954 -0.05413777 -0.13917962 -0.1694409 -0.039343737 -0.03784782 -0.06192553 -0.060671255
-0.085603476 -0.13424274 -0.05766354 -0.070127614 -0.10184853 -0.0625668 -0.12232781 -0.05941467
-0.105289616 -0.15247299 -0.11226104 -0.1554317 -0.03306637 -0.16950952 -0.10400065 -0.06122288
-0.16424318 -0.07855827 -0.044282448 -0.10345388 -0.04882681 -0.087152846 0.024041684 -0.06728818
-0.14296815 -0.09450031 -0.13170764 -0.10495637 -0.017035792 -0.15836932 -0.041258596 -0.12461455
-0.13311793 -0.14922501 -0.13611102 -0.07798085 -0.080851264 -0.07450993 -0.13234831 -0.120605245

net.5.weight f4 [128, 128]
00000000: 1e08 f33d 048f d5bd d476 0ebe 1fe2 9e3d
00000010: 6b54 26bd c57d 9f3d 2a53 e43d c345 1f3d
00000020: 8177 dbbd b2be c1bc 1dac 223c ab79 9abd
00000030: d323 5cbd fdce 553d 3281 8fbd 734b 093d
00000040: f6e5 b23d c8d5 983d 97a1 983c 3b71 323e
00000050: 813d a8bc edc5 803d 3d97 d93d da9c 07be
00000060: 636c ae3d 1c95 983b 9b25 81bd 78fd 2abd
00000070: fae6 183c b924 9a3d 0d64 c1bd 4034 b9bd
00000080: 5dc5 2fbd c133 e13d 92c1 a33d bbef b43d
00000090: 70d6 3cbc 717e 09be 067f 51bc 303e 8d3d
000000a0: e499 6dbd 4e97 a1bc 6c38 013c d5a5 debd
000000b0: 369e edbd 4b60 b53d 8a5a 713d 3e4a 5f3c
000000c0: 56c1 603d d1cb d63d 5435 04be 13d1 3bbc
000000d0: fee4 79bc 6c91 843d aff0 06bd ebde 60bd
000000e0: 919f b6bd 2473 d03c bda7 20bd b269 8f3b
000000f0: fdb0 d8bc c86b a73d a4c3 eabc 6d05 b73c
00000100: 5553 10be 11ae a23b 3218 0fbd d251 633d
00000110: c8d2 3dbd fe3f 96bd e2c5 08be 5547 2cbe
00000120: 95db b33b d107 f2bd 3399 4f3d 8852 b4bc
00000130: 4fba efbd 503b d13c d3ce 603d 331a 943d
00000140: 2193 50bd 4a3f 52bd 3612 11bc 1737 16be
00000150: b4ff a5bb e5d2 c63d c2c4 14bd 4c44 ad3d
00000160: 3b22 b2bd b4c8 e23d 5c4d 463d bf4a bd3d
00000170: ac63 393c 3565 793d 738f 92bd b86d 0b3d
00000180: dae4 343d b5d5 973d 1505 d7bc d29d 22be
00000190: 6f52 9a3e c5c7 f7bd 9325 a8bd 3ded d5bd
000001a0: 11e1 ed3c b07b a3bd 18cf acbb 5493 42bd
000001b0: 5d6d 1ebe 30b4 28be ae1e 82bc c9c3 81bc
000001c0: f176 b43d 390e 143e b9a8 6d3d 9e01 563d
000001d0: 66cc c4bd 1afa b93c 3e05 073e ddd4 cfbd
000001e0: b2f8 37be 1640 01bb 6939 08bd fae1 3d3e
000001f0: a3bd da3d 77b2 d7ba db57 e23d 7b36 e13d
00000200: a735 c23d 1e7f ffbd cf35 2ebd 8c0c 28bd
00000210: d93c d33b c248 94bb 872c 3e3d ede3 163e
00000220: f871 47bd b740 8dbd d463 2b3d 5c4c c6bd
00000230: 84f3 47bc 73a7 203c 938e b03d f22c 0b3d
00000240: 820d 14bd 5a07 46bd f9aa 8bbd 0e8e ad3d
00000250: e5a2 f3bb e8aa b5bc 4167 f2bc 7d8c 5a3d
00000260: 3252 7ebd b072 4dbd a2a7 a7bd 0390 e2bc
00000270: 0145 4c3d f64e 8b3c 7b43 013d 25ae c3bc
00000280: 72e7 d93a 5ece 27bd 4a5b 2abd aea0 1d3c
00000290: 0718 843d 2a9b 4cbc 8f03 93bd f4b6 bf3d
000002a0: 64ca 64bc e41f f1bc b540 ff3d a650 65bd
000002b0: 5dd1 3b3d 751f 733d 7cc0 93bd e493 70bd
000002c0: 7bc2 a53a a4ad ec3a 6246 873d 32b9 eebc
000002d0: 6500 f43c 0495 2ebd 576e 36bc 4266 74bc
000002e0: 5f7c 9cbd 4707 9a3d e70a 183c 03ff 243d
000002f0: f763 d8bc e85a 67bd 5e43 123d faa0 bb3c
00000300: 32de 57bc 9ecb 88bd 1032 96bd d201 25bd
00000310: 9558 bd3d 9525 8f3d 3d5c 49bd 8cd6 143d
00000320: 90ba b7bc 5ca3 f2bb 4f7f 1cbd f20a 853d
00000330: 0bd1 8cbc c3d1 06bd 8ccc 4c3d a66e b1bd
00000340: dc7b 5a3c 58ad 953d 6daf 63bc a65a 163d
00000350: f1f3 efbc fe1b e33d f331 2dbd 2c36 f7bd
00000360: 39f8 db3c e76f 22bd b681 38bd da49 27bd
00000370: d98c 013b 99c2 adbb a803 903d dbd7 9c3d
00000380: 14ef 3b3d 2371 563d a8eb 8b3b 9f8e 86bd
00000390: 0288 a63d 95ec 503d 7d3d 88bc eb61 e1bd
000003a0: ab26 a1ba c324 b8bc 119f cc3c 8acb 53bd
000003b0: 8ea0 e1bc b842 903d 6a69 07be 4926 0c3e
000003c0: 8b4b b6bc 2cd0 aebb 10b6 8d3c 5830 52bd
000003d0: 29e1 f73d ded0 0f3c e02a dc3c fe48 723d
000003e0: 979f 8d3d 1430 363d 9fbc adbb 0ebb 6c3c
000003f0: 4dcb 073d 66d3 e73d 86ce 2dbd c087 24bc
0.118667826 -0.10427669 -0.13912517 0.07757973 -0.04060785 0.077876605 0.11148675 0.03888489
-0.10716153 -0.0236505 0.00992873 -0.075427376 -0.053745102 0.052199353 -0.07007064 0.03351922
0.08735268 0.074626505 0.01863174 0.17426006 -0.02053714 0.06287751 0.106245495 -0.13243428
0.08516767 0.004656447 -0.06306001 -0.041745633 0.009332413 0.075265355 -0.09442911 -0.09043169
-0.04291283 0.109961994 0.07995905 0.088347875 -0.011525735 -0.1342714 -0.012786632 0.06896627
-0.05800809 -0.019725468 0.007886987 -0.10871474 -0.11602442 0.08856257 0.058924235 0.013628541
0.05487188 0.10488094 -0.12910968 -0.011463421 -0.01525235 0.064730495 -0.032944378 -0.05490009
-0.089171536 0.025445528 -0.039222468 0.0043766135 -0.026451582 0.081748545 -0.028657742 0.022341454
-0.14094289 0.004964598 -0.034935184 0.05549795 -0.046343595 -0.07336424 -0.13356736 -0.16824086
0.0054888227 -0.11817897 0.05068321 -0.02201201 -0.117054574 0.025540978 0.054884743 0.072315596
-0.050921563 -0.05132989 -0.0088544395 -0.14669453 -0.0050658826 0.09708194 -0.036320455 0.08460292
-0.08697935 0.11073437 0.04841362 0.09242772 0.0113152675 0.060887534 -0.07156267 0.034040183
0.044163562 0.07413808 -0.02624754 -0.15880516 0.30141017 -0.1209865 -0.08210292 -0.1044564
0.029037984 -0.07982576 -0.005273711 -0.047503784 -0.15471406 -0.16474986 -0.01588377 -0.015840428
0.08811749 0.1445855 0.058022235 0.052247636 -0.096092984 0.022702266 0.13185593 -0.10148022
-0.17965963 -0.0019722036 -0.033257876 0.18543234 0.106807016 -0.0016456385 0.11051913 0.109967194
0.094828896 -0.124754176 -0.042531785 -0.04102759 0.0064464626 -0.004525275 0.046429183 0.14735384
-0.048692673 -0.06897109 0.04184325 -0.09682533 -0.012204055 0.009805548 0.08620944 0.03397841
-0.036145695 -0.048346855 -0.0681972 0.084743604 -0.00743519 -0.022176221 -0.02959025 0.053356636
-0.062090106 -0.050158203 -0.0818627 -0.02765656 0.049870495 0.017005425 0.031558495 -0.02388675
0.0016624762 -0.04096829 -0.041590966 0.009620829 0.06449895 -0.012488166 -0.07178413 0.093610674
-0.013964269 -0.029434152 0.12463514 -0.055985115 0.04585396 0.05935617 -0.07214448 -0.05873479
0.0012646461 0.001805712 0.06605221 -0.029141042 0.029785344 -0.04262258 -0.0111347055 -0.014916958
-0.076409094 0.07520919 0.009279943 0.04028226 -0.026414854 -0.05648318 0.035708778 0.022903908
-0.013175534 -0.06679462 -0.073337674 -0.04028494 0.09245411 0.0698959 -0.04916023 0.03633742
-0.022427827 -0.007404728 -0.03820735 0.06496228 -0.017189523 -0.032914888 0.04999976 -0.08663683
0.013335194 0.07308453 -0.013896805 0.036707543 -0.029291125 0.110893235 -0.042283963 -0.12070879
0.02685176 -0.0396575 -0.045045577 -0.040841915 0.001976779 -0.005302739 0.070319474 0.07658359
0.0458823 0.05235399 0.004270036 -0.065701716 0.0813141 0.051006872 -0.016630882 -0.110050045
-0.0012294849 -0.022478467 0.024978193 -0.05170778 -0.027542379 0.070439756 -0.13223806 0.1368648
-0.022252819 -0.0053348746 0.017298728 -0.051315635 0.12103493 0.008777825 0.026875913 0.059151642
0.06915205 0.044479445 -0.0053020264 0.014448894 0.033152867 0.11319618 -0.042433284 -0.010042131

net.5.bias f4 [128]
00000000: 30bf c7bd f7d1 98bc e9d4 183d aea5 c0bc
00000010: c01b d43d 4d37 debd ef6f a8bc 7dc2 b63d
00000020: 388c 633d e74f 4dbd a1a9 1f3c 397c a9bd
00000030: 90e1 07bd 1692 70bd 7acb b83d fe0d abbc
00000040: c938 7c3c e9a8 bd3b f8d0 c93c 69a2 0f3d
00000050: 725f f3bc e65b f33c b133 703d b6f2 e53b
00000060: ed00 7cbd 8af0 7f3d 685b b73a 48b8 b2bc
00000070: ba51 fe3b 5fd1 02bd 0d2e 6fbd 1527 bebc
00000080: 2302 60bd fabd a2bd 1d22 dbbc 84bc 9b3c
00000090: e0da 59bd 9056 0fbd 2eb9 9cbd e2e2 0fbc
000000a0: 1403 febc 7c3f 4abd 6a06 0a3d de35 97bd
000000b0: d691 d4bc 479e 3c3d 3813 b4bd 4a01 edbb
000000c0: 9769 9e3d 5f82 a1bc 4e5a 9a3d 11d0 ffbc
000000d0: 1a75 a43d b9c2 3dbd 5251 cbbd 7096 1fbd
000000e0: 45b1 c4bc 9b0c e43b 8286 4ebc ad64 373d
000000f0: fe21 75bd 118c 283d 3847 ac3c 4023 cc3c
00000100: a002 dc3d a3c5 a73d 670f 4e3c 9205 2f3d
00000110: 7e06 8ebc 7c6a 2cbd 476a c4bd a1c0 51bd
00000120: a7e6 45bd dcbe b23d 08eb 483c 45e8 3a3c
00000130: 8748 d6bc 0f08 9a3d 5c0e 09bb 8ab4 163d
00000140: d780 5d3d 74c1 8ebd e254 2a3d 6ec2 65bd
00000150: b88d 0e3b 0eee 0f3d 9df1 4ebc 0e0a 04bc
00000160: 0cdb 763d c4d4 b43a 36fb ac3c 73e8 953a
00000170: 8cc1 08bb ea79 48bd b28a c7bb f32e b3bb
00000180: ae7d e63d 37c2 c83c 7703 b23c 0924 89bb
00000190: 3ed7 253d 625b f0bc 6499 963d fbce e13c
000001a0: d669 293d 7ef3 923d 7b1e 37bd d656 a6bd
000001b0: df4b 81bd c6ee 7ebc 5f08 683b b98d 383c
000001c0: 099b febc 87c1 35bd 0f9e 85bd b811 78bd
000001d0: b259 c13c 432b b23c 89bc 0c3d f314 403d
000001e0: 491e d6bc d0a8 bfbc 1ef4 88bd 5384 7fbd
000001f0: eb8d 8fbd c820 6cbc d068 a43d 3778 823d
-0.09753263 -0.018654807 0.037312422 -0.023516502 0.103568554 -0.108503915 -0.020561187 0.089238144
0.055553645 -0.05012503 0.0097450325 -0.08275647 -0.033174098 -0.05873307 0.09023185 -0.020880695
0.015394398 0.005787958 0.024635777 0.035066996 -0.029708598 0.029706907 0.058643047 0.007017459
-0.06152432 0.062485255 0.0013989033 -0.021816388 0.0077612074 -0.031937953 -0.058393527 -0.023211995
-0.054689538 -0.079463914 -0.026749665 0.01901079 -0.05318725 -0.03499466 -0.07652508 -0.00878212
-0.031007327 -0.04937695 0.033697523 -0.07383321 -0.025948446 0.046049383 -0.08792728 -0.0072328197
0.077349834 -0.019715486 0.075367555 -0.031227143 0.08030148 -0.04632828 -0.0992762 -0.038961828
-0.02401031 0.0069595105 -0.012605311 0.044773746 -0.05984687 0.041149203 0.021030053 0.024919152
0.10742688 0.08191993 0.012576914 0.04272992 -0.01733708 -0.04209374 -0.09590583 -0.051209096
-0.04831567 0.0872781 0.012263067 0.011407916 -0.02615763 0.07521068 -0.00209131 0.03679327
0.05407795 -0.06970492 0.041584857 -0.056093626 0.0021751951 0.035139136 -0.012630847 -0.008059038
0.060267493 0.0013796319 0.02111588 0.0011437073 -0.0020867316 -0.04894439 -0.006089532 -0.0054682433
0.1125444 0.024506671 0.021730168 -0.004185204 0.040488474 -0.02934045 0.07353476 0.027564516
0.0413607 0.07175349 -0.044706803 -0.081220314 -0.063132994 -0.015559858 0.003540538 0.011264258
-0.031079786 -0.044374015 -0.06524288 -0.060563773 0.02360234 0.021749144 0.03435949 0.04689498
-0.026137488 -0.023395926 -0.06687187 -0.062382054 -0.070094906 -0.0144121125 0.08027804 0.063705854

net.6.weight f4 [128]
00000000: 653a 973f 2ff1 833f d75e 8f3f aeeb 893f
00000010: 19f3 853f 658a 793f 75ae 823f e519 8a3f
00000020: 8bd4 123f 703c 813f 2ba7 173f b962 743f
00000030: 772d 773f 345f 713f 916e 7d3f 30e5 783f
00000040: ed28 c13e 86a0 523f d859 873f 5a24 703f
00000050: d648 7a3f ff1a 763f 92d4 913f 6c6e 813f
00000060: ea25 da3c dea9 b63e 3aab 923d 830e 3e3f
00000070: c137 673f ee8c 823f 4a60 8a3f 3787 633f
00000080: 7710 ac3e 5ddc 683f 440c 803f 4724 793f
00000090: c96c 843f 0d9c 853f 0f66 853f b9b7 6f3f
000000a0: 0e3e aa3e 93db 7e3e 3c38 473f fe97 803f
000000b0: 70e2 813f 759b 213f fd8e 793f 6ade eb3e
000000c0: ac2f 823f 6f7f 8f3f f48c 833f e740 c53e
000000d0: 6156 843f cf44 2f3f a926 8d3f 3c5b ea3d
000000e0: 6739 183f e4a2 093f 12a9 1d3e f8c7 893f
000000f0: 7c2d 653f e3d3 823f 9ecd 753f de24 673f
00000100: 2add 5b3f b0a3 793f 9c9e 563f 3d46 003f
00000110: 95c2 803f 47f8 823f 0ed6 633f 1e09 693f
00000120: 3d1c 863f 2d31 893f 4d98 8d3f 1289 823f
00000130: dca6 6f3f cd88 893f 3294 723f 819d 433f
00000140: 7299 773f 374e 923f e532 8a3f a1e0 783f
00000150: 6b1a 873f b7a0 ea3e 463b 913f fab1 243f
00000160: d975 663f 67a3 a53d b0bf 583f 5562 f23e
00000170: 6dd4 7f3f f542 893f 2dd8 8c3f 1873 773f
00000180: 33ec 813f 6b9c 433f c33c 643f ca5e 833f
00000190: 8629 7d3f 02ae 883f 85d8 8a3f ba96 253f
000001a0: cd12 853f 01ec 833f 953d 043f f154 893f
000001b0: 7df8 823f b26b 853f df96 7437 be5f 533e
000001c0: 763f 613f c1b7 2b3f d16e cb3e b9b1 c339
000001d0: e90c 893f 9887 8c3f 25c5 763f 78ca 833f
000001e0: d031 783f 9ebd 983f 7af4 9c3e 540c 743f
000001f0: 76d0 473f d128 693f 2a89 293f 5ac0 883f
1.1814696 1.0307978 1.1200818 1.0775049 1.0464813 0.974768 1.020949 1.0789152
0.57355565 1.0096569 0.59239453 0.9546314 0.9655375 0.94285893 0.98996836 0.9722471
0.37726536 0.8227619 1.0574293 0.9380547 0.9776739 0.9613494 1.1392996 1.0111823
0.026629407 0.35676473 0.07161565 0.74240893 0.9031945 1.0199258 1.0810635 0.88878196
0.33606312 0.9096125 1.0003743 0.9732098 1.0345699 1.0438248 1.0421771 0.93639714
0.3325047 0.24888448 0.7782018 1.0046384 1.0147228 0.63127834 0.9748381 0.46068126
1.0170798 1.1210765 1.027739 0.3852608 1.0338861 0.6846437 1.1027423 0.11443183
0.5946259 0.53764176 0.15396526 1.0764151 0.8952253 1.0220913 0.9601687 0.9029063
0.85884345 0.9751539 0.8383577 0.50107175 1.0059382 1.0232018 0.88998497 0.91029537
1.0477368 1.0718132 1.1062104 1.019808 0.9361398 1.0744873 0.9475738 0.76412207
0.96718514 1.1430119 1.0796782 0.97217757 1.0554937 0.4582574 1.1346214 0.6433407
0.9002357 0.08087807 0.8466749 0.47340646 0.9993351 1.0723559 1.1003472 0.96659994
1.0150207 0.7641055 0.89155215 1.0263302 0.98891485 1.0678103 1.0847327 0.64683115
1.0396363 1.0306398 0.51656467 1.0729047 1.0232083 1.0423491 1.4578661e-05 0.20641991
0.8798746 0.6707726 0.39732984 0.00037325712 1.0707065 1.097888 0.9639457 1.0296164
0.9695101 1.1932867 0.3065527 0.9533131 0.7805246 0.91077906 0.6622492 1.0683701

net.6.bias f4 [128]
00000000: 9116 203d 9201 093d bd8e 5e3d c5d7 713d
00000010: ba58 7f3d ce5c 4a3d 749a 583d 50c9 2a3d
00000020: 735f 0f3d 6121 833d 922f bf3b 67e9 4f3d
00000030: 3d5b aa3d 6c46 b53d c53c 6d3c 8614 633d
00000040: ed10 ac3c 936f 3a3d 7b3b 323d 7f9c 4d3d
00000050: 7038 a83d 6d4b 993d 8dd3 243d f539 693d
00000060: 2071 5dbc 73b4 ea3c a042 93bb 1838 083c
00000070: 3dcc bb3c be7e cf3c d1e6 683d 5155 633d
00000080: 39b2 b0bc 3743 2d3d 37df 743d 83d5 b23c
00000090: e99b 953d 7438 713d 7da8 4a3d 1b4c 743d
000000a0: 16e4 93bc f52e a6bb 9c2e 673d 75b4 923d
000000b0: 5bc1 9a3d e198 9f3b cf8f 803d 088a f9bb
000000c0: 7e2d 783d e94c 453d 7248 233d 6b4e 373c
000000d0: d1e4 303d f15e 6abc 2f78 053d 3c91 9a3b
000000e0: 619a 123d 2177 80bc 9733 e8bb 2dc8 a43d
000000f0: 3630 4e3d c643 883d bb58 873d 0fd5 353d
00000100: b828 1f3d e9b9 e7bb 0a0c f03d d116 a83c
00000110: a103 083d d64e 653d 1dc2 713d 5420 433d
00000120: 2815 463d 82fc 353d 4dd4 533d a039 8b3d
00000130: 9d95 853d f755 963d c711 853d 7d8f 883c
00000140: 0d1a 593d 08ef 3c3d 4f75 b33d 9545 f63c
00000150: ee0e 9c3d 787a 42bb f8e8 953d ea84 243c
00000160: 7928 213d a851 16bd 7615 2d3d bc3d 6e3c
00000170: 3e5f 083d 98c5 d93c 9ecf 753d 6844 933d
00000180: 9c14 6d3d e4f6 a13b 6c84 393d 6b65 1b3d
00000190: 714c 3c3d 30e9 3a3d 241e 493d 1956 6d3d
000001a0: 5671 3a3d 1f22 523d af17 d03c 12bd 8a3d
000001b0: c8f4 9a3c 7895 333d edbf 38b8 c7c3 32bc
000001c0: 959b 953d 4f23 953c 42f3 abbc b102 1eba
000001d0: 7fa8 193d b3b1 803d 31d7 dc3c 48bc aa3d
000001e0: 7954 1a3d 09ac a33c e57f 0a3b c841 923d
000001f0: feba fb3c 5adb 623d 4f5a 393d 6114 453d
0.03908402 0.033448763 0.054335345 0.059043664 0.062340476 0.04940491 0.052881673 0.041695893
0.035003137 0.06402851 0.0058345282 0.0507597 0.083181836 0.088513225 0.014479821 0.055439495
0.021004165 0.04551656 0.043513756 0.050198074 0.082138896 0.074850895 0.040240813 0.056940038
-0.013515741 0.028650498 -0.0044940263 0.008314155 0.022924537 0.02532899 0.05686075 0.055501286
-0.021569358 0.04230043 0.059783187 0.021830326 0.07305128 0.05889173 0.04947709 0.059642892
-0.018053096 -0.0050715157 0.056440935 0.07163326 0.07556411 0.0048705195 0.06277429 -0.0076153316
0.06059026 0.04816905 0.03986401 0.01118813 0.043186966 -0.014304862 0.03258532 0.0047170203
0.03579176 -0.015681805 -0.007086228 0.08045993 0.050338946 0.06653552 0.06608721 0.04439264
0.03885719 -0.0070717228 0.11721046 0.020518692 0.033206586 0.055983387 0.05902301 0.047638252
0.04836002 0.044430263 0.051716138 0.067981005 0.06522677 0.07340615 0.064975314 0.016669983
0.05300336 0.046126395 0.08762609 0.030062476 0.07620035 -0.0029675048 0.07319826 0.010041455
0.03934524 -0.036698967 0.042256795 0.014541086 0.033293955 0.026583478 0.060012452 0.07190782
0.057880983 0.0049427617 0.045292303 0.037938517 0.045971338 0.04563254 0.04910101 0.057943437
0.04551824 0.05130207 0.025401918 0.067743436 0.018915549 0.043843716 -4.4047763e-05 -0.010910935
0.073050655 0.018205313 -0.020990018 -0.0006027623 0.037514206 0.062838934 0.02695808 0.08336693
0.037678216 0.019979494 0.002113336 0.07141453 0.030728813 0.05538497 0.04525214 0.048115138

net.8.weight f4 [1, 128]
00000000: 0142 943e 5a3b 1f3e a535 603e 13f4 81be
00000010: 5834 4cbe 037f 083e 812f 44be aa28 57be
00000020: bd93 9dbd da1e 183e bde8 42bd f480 003e
00000030: dc13 eb3d cb40 ca3d 856b 0bbe dd9d 183e
00000040: a10a 65bc 0b80 c9bd 3c29 37be f59b 023e
00000050: 0d7a 0f3e 8c0a 023e 7145 693e e7d2 f33d
00000060: 306e ec3b f5be 1fbd 4aa7 023c b833 9dbd
00000070: 228c 083e fefb 413e bb40 3e3e 6bc7 d53d
00000080: c413 a6bc efda d73d 7ab3 0dbe bee0 24be
00000090: 2b45 4a3e 6262 4cbe 7edf 3d3e 0045 ef3d
000000a0: edf8 3dbb 05f3 053c f0a1 543d c552 043e
000000b0: c60e 153e 42fc 99bd 64d8 ba3d f31b 7ebc
000000c0: c210 253e e669 673e 13b7 0ebe c861 8b3d
000000d0: 22b1 1bbe 548e a8bd d2c1 573e 7764 203c
000000e0: 4847 303d cedd 09bd 4233 8bbc 5dbe 503e
000000f0: 89bf b53d 16d2 203e 5ea7 30be beaa 05be
00000100: f03d d7bd 3ce7 28be 5e86 10be 2a9c 0a3d
00000110: 187b 24be b476 51be b430 ee3d 1574 fe3d
00000120: 11f1 2fbe 3f7c 39be f592 6ebe 83cb 0a3e
00000130: b61f fabd 07ab 4d3e 7f59 2cbe 07e9 943d
00000140: 8d34 013e f624 793e 1dcf 58be 51d9 1a3e
00000150: 2d89 37be 016a 313d f847 6abe 6026 9a3d
00000160: d0c4 fdbd 0ff0 3d3c 4227 f6bd e40c 52bd
00000170: 4d96 3ebe 8cdc 6d3e 1c3c 87be a996 023e
00000180: f8fa 14be 8acb 98bd 52c0 bbbd 8bca 21be
00000190: 8296 10be c1fd 3e3e 3591 50be 788f e0bd
000001a0: 8f41 3ebe 2fe4 16be 060b 193d ca90 3c3e
000001b0: cb4b 2b3e 0396 4abe e66c 0a3b 1d57 e03c
000001c0: 8486 a13d a38b 553d 7555 12bd 0adc 223b
000001d0: f6fc 493e 025f 5fbe d3a6 0dbe ad66 253e
000001e0: 77cb c8bd 25af 933e 93a8 cd3b 1343 fd3d
000001f0: 0ef0 c33d f5cf ddbd d83b 4ebd e0c0 43be
0.28956607 0.15549985 0.21895464 -0.25381526 -0.19941843 0.13329701 -0.19158746 -0.21011606
-0.076941945 0.14855519 -0.047585238 0.12549192 0.11478397 0.098756395 -0.13615234 0.1490397
-0.013979585 -0.098388754 -0.17886823 0.12754805 0.14011402 0.12699336 0.22780396 0.11905461
0.007215284 -0.03900047 0.007974455 -0.0767588 0.13334706 0.18943784 0.1857938 0.104384266
-0.020273097 0.10539805 -0.13837996 -0.16101357 0.19752948 -0.19959405 0.18542287 0.116830826
-0.0028987483 0.008175616 0.051912248 0.12922199 0.14556417 -0.075188175 0.091233045 -0.015509593
0.16119674 0.22598991 -0.13937025 0.0680576 -0.1520429 -0.08230272 0.2107003 0.009789578
0.04303673 -0.033658795 -0.016992215 0.20385118 0.08874423 0.15705141 -0.17251346 -0.13053414
-0.105098605 -0.16494459 -0.14113757 0.033840336 -0.16062582 -0.20455438 0.11630383 0.12424485
-0.17181803 -0.18113802 -0.23298247 0.13554196 -0.1221308 0.20084773 -0.16831015 0.07271009
0.12617703 0.24330506 -0.21172757 0.15121962 -0.17923422 0.043313984 -0.22879016 0.07526851
-0.12391055 0.011592879 -0.120192066 -0.051281825 -0.18612023 0.23228663 -0.26413047 0.12752785
-0.14548862 -0.07460697 -0.091675416 -0.1579992 -0.14119914 0.18651487 -0.20367892 -0.109648645
-0.18579696 -0.14735483 0.03736403 0.18414608 0.16728131 -0.19783787 0.0021122037 0.027385289
0.07886985 0.05213512 -0.03572603 0.0024850392 0.19725403 -0.21813586 -0.1383317 0.16152449
-0.09804433 0.28844562 0.006276199 0.12366309 0.09567271 -0.1083068 -0.05035004 -0.19116545
