S3/model/stage3_model.pth (torch, 236897 bytes, 14 tensors)

net.0.weight f4 [256, 77]
000000 97 48 cb 3e 79 1b 42 3e 90 98 10 bd 63 cb 48 bc
       0.3970382 0.18955792 -0.035301745 -0.012255522
000010 f3 9b 3b bd 78 61 34 3d 1c fc 98 bd 11 32 94 3d
       -0.04580302 0.044038266 -0.07469961 0.07236112
000020 35 d7 b1 be 38 d7 a0 be 6a ed ad be ee 03 95 be
       -0.34734502 -0.314142 -0.33970195 -0.2910456
000030 fe 66 56 bb 38 32 24 3d 60 3c 04 bd 4a 10 9d 3e
       -0.0032715197 0.040086955 -0.03228414 0.3067649
000040 1e fc f0 3d 4d 3a 8f 3d 0a 0b 97 3d d3 36 c1 bc
       0.117668375 0.06993542 0.073751524 -0.023585713
000050 0e e0 c9 bc 9b f6 7a 3d 1c 8b 28 bd 8d db 47 3d
       -0.02464297 0.061270338 -0.04114829 0.048793364
000060 c1 96 7d 3e a5 67 0b 3d 86 93 99 be 8d da 97 3c
       0.2476454 0.03403439 -0.29995364 0.01853683
000070 38 46 e8 bd 4a a3 3f bd 3c 0b bc 3b c0 5f ee 3c
       -0.11341518 -0.046786584 0.005738644 0.029098392
000080 07 b2 a1 3d 48 05 98 3d 14 03 26 be 80 82 37 3e
       0.07895284 0.07422882 -0.16212112 0.17920876
000090 3c e7 3a bd 90 42 ea 3c 50 90 44 be 98 ad f9 3d
       -0.04563068 0.028596193 -0.19195676 0.121913135
0000a0 1c b4 55 be 6e d1 45 3c 86 ef a1 3e d2 e3 ea be
       -0.20869488 0.012073858 0.31628054 -0.45876938
0000b0 73 72 3e 3f ea 2f 9d be 4e 80 08 bd 7f 48 ed 3d
       0.74393386 -0.30700618 -0.033325486 0.11586093
0000c0 6b de cb bb ba 48 c8 be 97 bb 07 3f 34 45 ae 3e
       -0.0062215826 -0.39117986 0.53020614 0.34037173
0000d0 ff c2 33 be d0 23 34 be b6 73 c0 bd bb 3d dd bd
       -0.17554854 -0.17591786 -0.0939707 -0.1080279
0000e0 0c fb 77 3d 37 9c 6a bd 20 79 20 be 99 a7 be 3d
       0.06054215 -0.057277884 -0.15671206 0.093093105
0000f0 91 27 b2 3c 9f 8f 96 3d d1 c1 4d bf 29 cf 8c 3d
       0.021747382 0.07351612 -0.80373865 0.0687545
000100 cc 27 b7 3e 0e ec 2f be 2b 86 ec bf a3 ef 93 be
       0.3577255 -0.17179891 -1.8478445 -0.28893766
000110 42 96 33 be 70 f9 65 3d d2 d5 ae bd d7 4f bf bd
       -0.17537788 0.056146085 -0.08536877 -0.093414
000120 f5 83 68 3e de 15 f2 bd 33 02 a4 3e fc 64 90 3d
       0.22706588 -0.11820577 0.32032928 0.07050511
000130 12 0d c5 bd 63 44 35 be 7c bb e7 bd 33 e1 8d 3e
       -0.096216336 -0.17701869 -0.11315057 0.27710876
000140 b3 cd 31 3e 45 64 3f 3e b8 24 80 bd 56 bd b8 bd
       0.17363624 0.18690594 -0.062570035 -0.09020488
000150 2e 35 bb 3d ea 5a 28 3d 1f b3 42 3e b6 d4 cd 3d
       0.091410026 0.041102327 0.19013642 0.10050337
000160 8a d6 9a bb bd 7e 9d bd b5 76 3d 3d 72 1b 5a bd
       -0.004725282 -0.07690189 0.046255786 -0.05324883
000170 4a 86 1c 3c 03 b0 c8 3e 1f 56 db 3e 45 4a 67 bc
       0.009553501 0.39196786 0.42839143 -0.014116828
000180 37 a9 1b 3e 99 ec 5e be 30 bc d2 bc 67 40 ee bc
       0.15201269 -0.21769942 -0.0257245 -0.029083444
000190 cb 09 7d be 7b 8a bd 3d 85 72 22 be 70 ab 89 bd
       -0.24710767 0.09254929 -0.15863998 -0.06722152
0001a0 93 0a bb 3d ed 6f 78 bd 3e 8c 07 3e a3 ff 37 bf
       0.09132876 -0.060653616 0.13237092 -0.71874446
0001b0 b9 e3 d5 bd 35 ef 3b 3f 70 37 b8 3d 15 4f 5a be
       -0.10443825 0.73411876 0.08994949 -0.2131923
0001c0 2f 06 62 3d 91 ab 63 bf 36 e8 d5 be f1 2d 7f bd
       0.05518168 -0.88933665 -0.41778725 -0.062299673
0001d0 2f 9c 3d bd 6b b3 0d be e3 76 c2 bc d8 b3 99 be
       -0.046291526 -0.13837974 -0.02373833 -0.30020022
0001e0 a2 24 fa 3e d7 b3 96 3f 46 83 d9 3e 6b 85 42 be
       0.48856074 1.1773633 0.42482966 -0.18996207
0001f0 7f c2 0e bc 9f 10 75 3f bb 17 b6 3f 19 6f fb be
       -0.008713364 0.95728487 1.4225992 -0.49108198
000200 fa f9 1d 3d e5 a4 a6 bd e0 00 cc 3d 55 c5 70 3d
       0.038568474 -0.0813692 0.099611044 0.05878194
000210 ce b8 6c bd e8 e0 17 3d 80 94 6c 3d fc 6b 24 3e
       -0.05779343 0.03707972 0.057758808 0.16056818
000220 f4 80 95 bd f5 ff b9 3d a9 f0 06 3e 06 1f 6d be
       -0.072999865 0.09082023 0.13177742 -0.23156366
000230 ee 48 b7 bc c9 ba db be 38 e7 1e bf 02 bb fa be
       -0.022373643 -0.42915943 -0.6207156 -0.489708
000240 50 1a 1a 3e 04 01 7b 3e d1 04 dd bd ad d0 e6 3d
       0.150491 0.24512106 -0.10791934 0.112702705
000250 28 4d e6 3d 64 bc b6 3d 16 67 fa 3d 85 d1 d1 bc
       0.11245185 0.089226514 0.12226693 -0.025612602
000260 12 43 1d bd 55 8e fe 3c 6b 5c ea 3e 32 13 66 3d
       -0.03839404 0.031073729 0.45773634 0.05617065
000270 bf 8c 86 be ee df 37 be 5a 98 fb 3c b1 fa 8c 3d
       -0.26279256 -0.17956516 0.030712295 0.06883753
000280 81 3f 16 be b8 bb 05 3e e7 b1 33 be 13 76 37 3d
       -0.14672662 0.1305989 -0.17548333 0.04479034
000290 d6 fc cc 3c 7d 3a 87 be 1a 88 0d be ab 03 61 3e
       0.025022905 -0.2641181 -0.1382145 0.21974055
0002a0 f3 2e 42 be f4 21 2c be 34 e6 09 3e 40 1b 5a be
       -0.18963222 -0.16809827 0.13466722 -0.21299458
0002b0 b9 d1 02 3c d6 61 cd 3e e1 51 a6 be 26 74 0a 3d
       0.007984572 0.40113705 -0.32484344 0.033802174
0002c0 58 5a a7 be 8d 82 fa bd dc 51 9d 3d 0a 0c 3e be
       -0.32686114 -0.12231932 0.07681629 -0.1855928
0002d0 7c 8e b5 be d9 fd 4a be d9 20 b8 be 6c c2 43 be
       -0.3546027 -0.19823398 -0.3596256 -0.19117135
0002e0 97 09 9b be 18 98 2e bd 7a a4 c2 3e 30 77 95 3b
       -0.30280754 -0.042625517 0.3801611 0.0045613274
0002f0 d4 9f f8 bd a3 fd 70 3c b1 b2 64 be ca 91 4c 3c
       -0.1213986 0.014708909 -0.2233379 0.012485931
000300 58 61 09 3f 71 e5 3c be 8f c9 01 3e db 8e 3b be
       0.5366416 -0.184469 0.12674545 -0.18316214
000310 ad 99 c8 bd 32 f7 3d 3f 24 4f 77 be 80 96 62 3f
       -0.09794936 0.74205315 -0.24151284 0.88510895
000320 d8 a2 a9 3c 4f 48 a0 bd ef 3e 43 3f 87 76 2f 3f
       0.020707533 -0.07826292 0.76267904 0.68540233
000330 9f 69 07 bf 5c d4 08 3f 21 5c 56 3d 11 03 83 3d
       -0.5289554 0.53449035 0.052333955 0.06397069
000340 f2 02 f1 bd 78 22 45 3d 58 4b 8e 3d 9c ab b2 bd
       -0.1176814 0.048128575 0.069479644 -0.08724138
000350 af 78 3b 3e 19 72 d3 3d 52 91 f8 bc 7f 8e f4 bb
       0.18307756 0.10324497 -0.030342732 -0.007463276
000360 91 6d 83 3d f5 28 48 3e 3e 86 9b bd cc 2f e8 3d
       0.064173825 0.19546874 -0.07593964 0.113372415
000370 e7 97 f7 bf 07 fe 9d be f1 71 bb 3e e2 cd 7e be
       -1.9343232 -0.3085787 0.36610368 -0.24883226
000380 10 5c 36 3d 5a a4 2c be 3f cb 53 be d0 48 af 3c
       0.04452139 -0.1685957 -0.20683001 0.021397024
000390 1e e2 8e 3e a3 8a a7 bb 2d ea 3f bc 3e 29 95 3e
       0.2790689 -0.0051129623 -0.011713547 0.29133028
0003a0 cb 46 32 3e bd 9d 97 be ff ea c2 bc 04 47 6a be
       0.17409818 -0.29612532 -0.023793695 -0.22878653
0003b0 d5 7f 37 be 12 63 94 be e5 a5 95 3e 3e 29 d9 bd
       -0.17919858 -0.28981835 0.2922813 -0.106035694
0003c0 4f 5b 6e 3e ca e7 1a be b2 93 98 be f7 9a 4e be
       0.23277019 -0.15127483 -0.29800183 -0.20176302
0003d0 20 f1 c8 bd 19 61 3a be 80 df 5f 3d fe 38 91 3e
       -0.09811616 -0.18201102 0.054656506 0.28363794
0003e0 6d ea ef 3e ce a1 24 bc 1e 4e 69 3e 28 24 88 be
       0.4685854 -0.010048343 0.22783706 -0.26590085
0003f0 b1 3d 07 3e fb 16 b4 bd 78 e1 10 bd af 3e 49 3e
       0.13207127 -0.08793446 -0.035371274 0.19652818

net.0.bias f4 [256]
000000 ac 9d b9 bc 45 79 fb bc 5a cf 84 bd af 62 38 3d
       -0.022658192 -0.030697474 -0.06484862 0.045015987
000010 bc 6d a7 ba 48 89 cb bb dc 58 b1 bd 96 2f c7 3d
       -0.0012773792 -0.0062114336 -0.08659527 0.09725873
000020 56 e3 98 bd 7a 68 18 3d ee 46 97 3c bc 59 ea 3d
       -0.07465236 0.03720901 0.01846644 0.11442897
000030 b3 fd c6 bd 81 85 9c bd 6c 72 b5 3b 81 c6 41 3d
       -0.09716358 -0.07642651 0.005537322 0.04730845
000040 91 e9 93 3c 4b ab db bd a8 88 82 bd 1b 9f 81 3c
       0.01805571 -0.10726031 -0.06373721 0.015822938
000050 40 9a c3 bd 10 d4 a7 3d 15 b0 a6 3c d3 dc aa bd
       -0.09550905 0.081947446 0.020347634 -0.083429
000060 12 9e d9 bd 05 49 8a 3d 92 e4 13 bc e6 8e 79 3d
       -0.10625853 0.067522086 -0.009026663 0.060927294
000070 45 1f 65 bd 2f 95 ab 3c b8 7d b2 3c 46 f1 a6 3d
       -0.055938024 0.02094516 0.021788463 0.08151488
000080 22 7b 9b 3d e1 58 6b bd 3c 57 50 bd ee e4 07 bd
       0.07591845 -0.05745781 -0.050864443 -0.03317731
000090 c4 4b 4e bd 22 e9 64 3d f5 c4 11 3d a1 ae e6 bd
       -0.050365224 0.055886395 0.035588223 -0.112637766
0000a0 88 29 94 bd 0b 9c 0d 3d 93 86 1a bc 00 b8 f5 bc
       -0.07234484 0.034572642 -0.009431499 -0.029994965
0000b0 1f cb 5d 3d c5 5a e6 bd ef 3d ac bb 48 bb e6 3d
       0.05414879 -0.11247782 -0.0052564065 0.1126619
0000c0 cd 21 8e 3d 70 79 43 bd 4d 10 f5 ba 0f 59 66 bd
       0.06940041 -0.047723234 -0.0018696875 -0.056237277
0000d0 bf 54 90 bd e9 4d 12 bd 81 08 a6 3d 4f 0f a5 3c
       -0.07047414 -0.035718832 0.08107091 0.020148901
0000e0 72 8b d7 3c d0 2d b8 3c 8d 47 bf bd db 39 7a bc
       0.02631161 0.022482783 -0.09339819 -0.015272583
0000f0 33 06 87 3d 6f 92 97 3c 77 08 be bd 67 d8 b0 3d
       0.06592979 0.018502442 -0.09278958 0.086350255
000100 11 79 b2 bd 09 64 e0 3d ff 55 4d bd 2d 66 4e bd
       -0.08714498 0.1095658 -0.05013084 -0.05039041
000110 9d 67 4e bc 0e 37 86 bc 3c 17 65 3d e4 18 6e 3d
       -0.0125979455 -0.016383674 0.05593036 0.058129206
000120 01 57 26 3d 05 d7 f5 3c ee 58 c5 bd aa 59 3b bd
       0.040610317 0.030009756 -0.096361026 -0.045739807
000130 cd 58 8b 3d 9c 04 86 3d 61 aa b1 bd 6d e5 8f 3d
       0.06804047 0.06543848 -0.08675075 0.07026181
000140 ea cc d0 3c 29 2a e1 3d 5c 40 61 3d 7a f4 61 bd
       0.025488336 0.109943695 0.05499302 -0.05516479
000150 80 f1 15 3d 47 64 a3 3d 23 f0 87 3d d1 61 81 3d
       0.036607265 0.07978111 0.06637599 0.06317485
000160 43 e7 36 bd e4 3d d9 bc d0 e3 eb bd 85 06 b9 bd
       -0.044654142 -0.02651877 -0.11518061 -0.090344466
000170 61 0a 9f bd 9d 21 dd bc 80 b5 bf 3d 24 a3 28 ba
       -0.077656515 -0.026993567 0.0936079 -0.0006433001
000180 4d c2 d1 3d 26 dd 72 bb 8f 5f 96 3d 6a 40 4b bd
       0.10242138 -0.0037058084 0.07342445 -0.049621977
000190 ea 9e c7 3d c6 3d a8 bd 73 02 72 bd c4 d9 6a 3d
       0.09747107 -0.08214907 -0.059084367 0.057336584
0001a0 ea 31 8d bd 93 84 cd 3c 3d df d4 3d f9 e7 47 bc
       -0.06894286 0.02508763 0.10394142 -0.012201303
0001b0 30 77 c0 bd cc 1c 8b 3d 97 fb 75 3a b0 da 42 3c
       -0.09397733 0.06792602 0.0009383498 0.0118929595
0001c0 80 30 e0 bd dc af da 3c a8 f3 c7 bd f1 be 04 3d
       -0.10946751 0.026695184 -0.097632706 0.03240866
0001d0 1b 64 9c 3c c5 d4 4b 3d 98 5b c1 bd 64 50 8b 3c
       0.019090703 0.04976346 -0.09441298 0.017006107
0001e0 8b fe ac bd cf da c5 3c 76 a3 8e 3d b3 92 e1 3d
       -0.08446988 0.024152188 0.069647714 0.11014309
0001f0 2e d3 92 bc be 8b 24 3b 3a b3 de bc 05 ea d0 bd
       -0.017922964 0.0025107707 -0.027185071 -0.10200886
000200 69 16 b0 bd 68 11 b2 3d 25 85 31 3d 76 ce ed 3c
       -0.085980244 0.08694726 0.043339867 0.029029112
000210 fe ed 34 bd 47 37 53 bd c4 49 09 3d 4f 1c da 3d
       -0.04417228 -0.05156639 0.033517614 0.10649931
000220 a4 f2 d4 bd 5f 7f be 3d bb f2 99 bd 37 4f b3 bd
       -0.103978425 0.09301638 -0.07517 -0.087553434
000230 07 e0 d5 bd c5 d8 90 3c 3c 49 8f 3c b1 e6 5b 3d
       -0.104431204 0.017681489 0.017490976 0.0536868
000240 78 f2 fb 39 07 5e 3e bb 06 36 5e bd 4c f2 c2 3d
       0.00048055104 -0.0029047744 -0.05425074 0.09518871
000250 d6 6a 55 3d f2 3f c1 bd 57 bc 48 bd 33 6c e2 3d
       0.05210384 -0.09436025 -0.04900774 0.110557936
000260 53 c7 d0 3d 49 8a 4b 3c 59 dc 51 3d fd 65 c6 3d
       0.10194268 0.0124231065 0.05123553 0.096874215
000270 1d 7c 83 3d 61 af 92 bc cd c3 9d bb f0 53 82 3d
       0.06420157 -0.017905893 -0.004814601 0.06363666
000280 d6 61 97 bc cf b3 95 3d 17 32 de bd 9d 9e 85 bd
       -0.018479269 0.073096864 -0.10849398 -0.06524394
000290 cf 77 b1 bc b9 40 c0 3d 14 06 af 3d 33 e0 cd 3d
       -0.021663575 0.09387345 0.08546081 0.10052528
0002a0 f0 98 07 bd d6 63 aa 3d 7f c1 43 bd 27 d9 1a bd
       -0.033104837 0.083198234 -0.047791954 -0.03780475
0002b0 9f 14 48 3d cf 53 91 bd 96 32 77 bd 60 ba ab 3c
       0.04884779 -0.07096063 -0.060350977 0.020962894
0002c0 e9 ff 10 3d f7 9c 70 3d 28 da 38 bd 94 9e 1a 3d
       0.035400305 0.058743443 -0.045129925 0.037748888
0002d0 c2 64 bb bd bc 1f 36 bd 87 31 2e ba 40 22 13 bd
       -0.091500774 -0.044463858 -0.00066449534 -0.035921335
0002e0 91 65 b3 bd 11 0c ac bc 09 a7 fb 3c 11 93 3f bc
       -0.08759607 -0.021001847 0.030719297 -0.011692778
0002f0 63 fb ab 3d e0 e6 c5 3d 8e eb 42 bb 2d 66 4a bd
       0.083975576 0.096631765 -0.0029742452 -0.04941385
000300 80 2d dd 3d 85 bb cd bd cd ba 0a 3d cd 12 c7 3d
       0.10799694 -0.10045532 0.033869553 0.09720383
000310 86 e4 60 3d 0b c4 93 bd 65 a8 08 bd 74 57 9b bd
       0.054905437 -0.072151266 -0.03336372 -0.0758504
000320 d3 7a 40 3d b3 4a 8f bd 82 b4 e4 3d be 3d b2 3d
       0.046992134 -0.069966696 0.11167242 0.08703183
000330 ea d8 d4 bd ec 50 9b bc 82 c0 08 3d a9 c8 8b bd
       -0.103929356 -0.018959485 0.033386715 -0.06825382
000340 6e d9 85 3d c7 54 89 bd 14 8d ed bd 3f 90 a5 3c
       0.06535612 -0.06705623 -0.11599174 0.020210383
000350 db bf 8c 3d aa 01 43 bc 49 c4 ac bd 8b 44 87 3d
       0.06872531 -0.011902252 -0.08435876 0.066048704
000360 2c db 12 bd 7f 7d 86 3d f1 9e b1 bd a0 cc 3e 3d
       -0.03585355 0.06566905 -0.08672894 0.046581864
000370 42 f3 40 3d 34 29 b4 bd 02 54 9d 3c 2b 6e 98 bd
       0.04710699 -0.08796921 0.019205097 -0.07442888
000380 9b 3f 9c 3d cb 93 b5 bd 97 79 d9 3d c0 c3 e6 3c
       0.07629319 -0.0886608 0.106188945 0.028169513
000390 cb 09 dd 3b b7 4b 8a 3d 7f 43 b3 bb a4 1f 39 3d
       0.006745552 0.06752723 -0.0054706926 0.04519619
0003a0 b5 d8 c6 3d df 69 6b 3d 75 8a 41 3d 35 a5 5c bd
       0.09709302 0.057474013 0.047251184 -0.05386849
0003b0 a7 9a c8 3c b8 04 3e bc e1 e9 44 3d 31 85 22 bc
       0.024487806 -0.011597805 0.048074607 -0.009919451
0003c0 74 73 4d bc 84 ca a0 3d 15 d0 cd bd 28 51 9f 3d
       -0.012539733 0.07851127 -0.10049454 0.07779151
0003d0 69 6b df bd 50 bf 8d 3d f6 e2 b6 bd 5b 8c cb 3d
       -0.10909159 0.069212556 -0.08930008 0.0993888
0003e0 4d 55 85 bc bc d6 af 3d 8f 21 b8 3d 23 8c e4 3c
       -0.016276026 0.08585879 0.08990776 0.027898854
0003f0 8d 0c 96 bd b5 3b ca 3c aa 04 8e 3d af f0 bd 3d
       -0.073266126 0.024686674 0.06934483 0.092744224

net.1.weight f4 [256]
000000 41 39 9f 3f eb 6e 83 3f 1b ab 8d 3f de cc 91 3f
       1.2439348 1.0268224 1.1067842 1.1390646
000010 12 a9 8e 3f fb dd a6 3f 03 25 92 3f 05 9a b4 3f
       1.1145346 1.3036493 1.1417545 1.4109503
000020 e3 31 ab 3f f9 b9 80 3f d2 df 4f 3f a5 ae 91 3f
       1.3374599 1.0056754 0.812009 1.1381422
000030 6b 61 81 3f cd 6a 9c 3f cc 27 87 3f 7e ee b9 3f
       1.0107855 1.2220093 1.055902 1.4525907
000040 4b 06 d5 3f 49 85 a6 3f 5a 50 99 3f e7 5a b4 3f
       1.6642545 1.3009425 1.1977646 1.4090241
000050 28 e3 86 3f 5b a5 c5 3f c8 17 9f 3f bb 2f 8a 3f
       1.0538073 1.5441087 1.2429132 1.0795816
000060 50 2d aa 3f ac 34 ae 3f 34 f7 6f 3f 0f d4 86 3f
       1.3295078 1.3609824 0.9373658 1.0533465
000070 58 ed ae 3f 28 98 a8 3f 2e 11 bb 3f 23 79 7c 3f
       1.3666182 1.3171434 1.4614618 0.9862234
000080 47 4d b2 3f 5b 60 80 3f 42 d8 87 3f ed 1f 99 3f
       1.3929833 1.0029405 1.0612872 1.1962868
000090 7c b0 87 3f ed 95 82 3f ce a7 a1 3f 04 6f 45 3f
       1.0600734 1.0202004 1.2629335 0.7712252
0000a0 cc 3c a3 3f c8 93 60 3f b5 82 90 3f 75 ef 45 3f
       1.2752929 0.87725496 1.1289889 0.7731851
0000b0 81 24 ba 3f 2d 80 8c 3f 4d 4e a1 3f c1 f8 b6 3f
       1.454239 1.0976616 1.260202 1.4294664
0000c0 4e 6e 8e 3f fa 4e 90 3f 08 d9 94 3f c7 dd 94 3f
       1.1127412 1.1274102 1.1628733 1.1630181
0000d0 ca e5 b2 3f 0f 2c aa 3f d0 14 9f 3f a9 c8 90 3f
       1.3976376 1.3294696 1.2428226 1.1311237
0000e0 82 ea 8c 3f 75 53 a8 3f 08 b1 4a 3f 05 69 8a 3f
       1.1009066 1.3150469 0.7917638 1.08133
0000f0 17 24 85 3f 53 37 bb 3f a5 c8 a0 3f 4e 56 9d 3f
       1.0401639 1.4626259 1.2561232 1.2291963
000100 92 8d af 3f 3c 95 8e 3f 8b 6d 9a 3f 45 1e ab 3f
       1.3715079 1.1139293 1.206468 1.3368613
000110 7d c8 ab 3f c8 4d 9b 3f dd 68 6c 3f 2e fe 4c 3f
       1.3420559 1.2133112 0.9234751 0.8007535
000120 ef b3 85 3f ce b9 95 3f 0b 29 60 3f b2 f2 90 3f
       1.0445536 1.1697328 0.87562627 1.1324065
000130 0f b1 c4 3f ad c5 8a 3f ac 55 8a 3f 9a 06 7d 3f
       1.5366534 1.0841576 1.0807395 0.988382
000140 ef 43 9a 3f 3d c0 ae 3f 5d 3a a8 3f a7 c2 75 3f
       1.2051982 1.3652416 1.3142811 0.9600014
000150 64 d8 88 3f 5f 02 bf 3f 24 a5 8a 3f c7 19 c9 3f
       1.0691037 1.4922599 1.0831647 1.5710992
000160 49 53 86 3f 50 c8 9b 3f 41 83 8b 3f d1 2f 2d 3f
       1.0494167 1.2170506 1.089943 0.6765109
000170 62 7f 76 3f d9 77 8e 3f b7 12 a9 3f d7 79 87 3f
       0.9628812 1.1130325 1.3208836 1.0584058
000180 c8 f9 c1 3f 90 7a bb 3f d0 a2 b4 3f 38 b7 ab 3f
       1.5154352 1.4646778 1.4112186 1.3415289
000190 5d 34 ac 3f d5 b1 74 3f 5b e0 95 3f e3 62 d2 3f
       1.345348 0.9558385 1.1709093 1.6436428
0001a0 9d 2d 69 3f 3c e1 8b 3f 02 1c 67 3f 62 c3 a7 3f
       0.91085225 1.0928111 0.9027711 1.3106501
0001b0 80 07 87 3f 45 8a a2 3f fe ca b8 3f df 07 b4 3f
       1.0549164 1.2698447 1.4436948 1.4064902
0001c0 31 95 8c 3f 40 2c 96 3f 9a 5c a2 3f 03 02 6e 3f
       1.098303 1.1732254 1.268451 0.9297182
0001d0 fb 3b 95 3f b2 69 8d 3f b3 f3 8e 3f d8 3f ae 3f
       1.165893 1.1047881 1.1168121 1.3613234
0001e0 c4 2b b7 3f f6 70 5b 3f 31 6c 90 3f 5a 5f ac 3f
       1.4310231 0.8571924 1.1283017 1.3466599
0001f0 8c 26 b5 3f 9c 87 52 3f 90 de 9d 3f 26 47 a7 3f
       1.4152389 0.82238173 1.2333546 1.3068588
000200 ce 38 af 3f f9 d5 88 3f b5 ec bd 3f fa bd 91 3f
       1.368921 1.0690299 1.4837862 1.1386101
000210 fd 4b 79 3f 57 16 be 3f 6e 5e a5 3f 77 cf 9d 3f
       0.97381574 1.4850568 1.2919443 1.2328938
000220 87 b0 a8 3f 16 b5 84 3f 95 e1 80 3f 05 cf 93 3f
       1.3178872 1.0367763 1.0068842 1.1547552
000230 a2 0c 7d 3f 60 05 6d 3f e9 94 9c 3f 4a c3 a2 3f
       0.988474 0.92586327 1.2232944 1.2715847
000240 64 04 99 3f 51 d6 b1 3f 11 18 c5 3f b6 67 be 3f
       1.1954465 1.3893529 1.539797 1.48754
000250 bd 08 c6 3f 86 f1 9a 3f cc ac ca 3f 30 7f a0 3f
       1.5471417 1.2104957 1.5833983 1.2538815
000260 b7 72 a6 3f a9 dd a9 3f eb 63 a6 3f a8 e5 8f 3f
       1.3003758 1.327077 1.2999243 1.124196
000270 73 f3 85 3f 82 48 8d 3f 9e b8 7a 3f 12 9f 95 3f
       1.046492 1.1037753 0.97937953 1.168917
000280 11 7c 62 3f 62 e8 92 3f 24 a9 95 3f fa b1 87 3f
       0.8847056 1.1477168 1.1692243 1.0601189
000290 3a 46 a2 3f 1c c5 9b 3f 4e 2e 8b 3f cd 77 9c 3f
       1.2677681 1.2169528 1.0873506 1.222406
0002a0 7d 0a 87 3f 08 bc b6 3f 22 2e b7 3f ca 81 59 3f
       1.0550076 1.4276133 1.4310954 0.8496367
0002b0 20 59 b8 3f c7 ba 9a 3f 1e 1c b4 3f e4 df ca 3f
       1.4402199 1.208825 1.4071081 1.5849576
0002c0 d3 a0 80 3f 0f a7 9f 3f 48 7e a3 3f 37 20 a4 3f
       1.004908 1.2472857 1.2772913 1.2822331
0002d0 14 e5 b9 3f 91 74 a8 3f 59 52 79 3f a5 31 98 3f
       1.4523034 1.3160573 0.9739128 1.189015
0002e0 b6 42 95 3f 20 f5 7a 3f 15 7a 84 3f be 69 79 3f
       1.1660984 0.9803028 1.0349756 0.97426975
0002f0 37 9d 84 3f 9e c1 68 3f 33 ef 9e 3f 89 c8 7b 3f
       1.0360478 0.90920436 1.2416748 0.9835287
000300 9b 49 a1 3f 17 8b 68 3f 3e b1 89 3f b5 cb 86 3f
       1.2600588 0.90837234 1.0757215 1.0530916
000310 3a 34 b5 3f 08 40 8f 3f 2a f5 5f 3f c8 8b 5d 3f
       1.4156563 1.1191416 0.87483466 0.86541414
000320 8e 17 8c 3f cf 33 89 3f 42 aa a0 3f 10 b4 9f 3f
       1.0944688 1.0718936 1.2551959 1.2476826
000330 41 5c cb 3f 8d b3 9d 3f 56 24 6a 3f 47 61 68 3f
       1.5887529 1.232042 0.91461694 0.90773433
000340 ce f9 a6 3f 82 ea 99 3f 30 01 6c 3f 5f b5 97 3f
       1.3044984 1.2024691 0.9218931 1.1852225
000350 c8 1d 7e 3f db ec 76 3f 7d 66 c6 3f 19 7d 9f 3f
       0.9926419 0.9645516 1.5500027 1.2460052
000360 f7 4f 84 3f 03 7c b7 3f 6d 8f 41 3f 96 2b 8d 3f
       1.0336903 1.433472 0.75609475 1.1028926
000370 d6 ff 92 3f e2 71 a3 3f 2d 4f 7e 3f 26 18 89 3f
       1.1484325 1.2769129 0.9933956 1.0710495
000380 7e 97 97 3f f7 86 91 3f 44 c4 a3 3f f0 34 8d 3f
       1.1843107 1.1369313 1.279427 1.103178
000390 db 62 98 3f b6 f0 a0 3f 4e 2f 96 3f 74 3a 7d 3f
       1.1905168 1.2573459 1.1733186 0.9891732
0003a0 b2 2e 8f 3f 25 d4 62 3f 6b 88 8e 3f 40 95 66 3f
       1.1186125 0.88604957 1.1135381 0.9007149
0003b0 28 c4 98 3f b4 9b 98 3f 1b a7 4c 3f 11 ad 8d 3f
       1.1934862 1.1922517 0.7994248 1.1068441
0003c0 69 7e 89 3f d6 49 9e 3f 98 91 8e 3f 90 69 6f 3f
       1.0741702 1.2366283 1.1138182 0.9352045
0003d0 a0 17 b6 3f 2b c4 9b 3f 00 fb 95 3f ae 40 5d 3f
       1.422596 1.2169241 1.1717224 0.8642682
0003e0 a7 d2 91 3f 32 ad 82 3f bb 60 b3 3f 3c c4 86 3f
       1.1392411 1.0209105 1.4013895 1.0528636
0003f0 83 5c 98 3f 25 91 75 3f 45 d2 6d 3f cc f0 81 3f
       1.1903232 0.959246 0.9289897 1.015161

net.1.bias f4 [256]
000000 f8 bd 27 be 16 ac 93 3e 83 57 e8 bd a4 2f 75 3d
       -0.16381061 0.2884223 -0.113448165 0.059859887
000010 07 65 cc 3d e7 f7 0b be 58 91 36 be df ef 14 bd
       0.09980207 -0.13668786 -0.17828882 -0.03636157
000020 a8 2a 46 be d8 5a 0f bf 63 c5 9a bd 0a 22 8b be
       -0.1935221 -0.5599799 -0.0755718 -0.27174407
000030 0f 37 50 3e ed c9 d4 bd 2e 72 81 3e ce 9b 83 be
       0.20333503 -0.10390077 0.25282425 -0.25704807
000040 8e 8d b4 3d 94 4c dc bd 98 14 37 be df f7 41 3d
       0.08816062 -0.107567936 -0.1787895 0.04735553
000050 8e fc 74 bc f0 9d 82 be 34 c2 b6 bd 93 dd 59 be
       -0.014952792 -0.25511122 -0.0892376 -0.2127593
000060 a1 89 e4 be 36 56 2a bd 53 c9 61 bf ed 6d 80 be
       -0.44636253 -0.041586123 -0.8819782 -0.25083867
000070 22 6d 40 be 0d 60 0d bf 2a c7 75 bd d6 30 3c 3d
       -0.18791631 -0.55224687 -0.06000439 0.04594501
000080 bd f7 1b bf 12 6e 3a be 2a 10 51 be 98 4f 3f bc
       -0.60924894 -0.18206051 -0.20416322 -0.0116766915
000090 f3 08 98 be 6f 10 aa 3d fa 4e 49 be 68 9e 97 3d
       -0.29694328 0.08303916 -0.19659033 0.074032605
0000a0 e7 59 17 bf 44 a9 f3 bc 59 a8 b7 be f7 6f a7 be
       -0.59121555 -0.029743798 -0.35870627 -0.3270261
0000b0 35 bf e7 bd b4 03 72 be 9a 21 2d be 22 f9 51 3c
       -0.11315767 -0.23634225 -0.16907349 0.012815746
0000c0 dc c8 6d bd 11 a0 bb bd 11 53 82 bd 52 5d e1 be
       -0.058052883 -0.091613896 -0.063635 -0.4401651
0000d0 bf e6 14 be e7 af af bd 59 54 6e 3d e1 bd 3f be
       -0.14541148 -0.085784726 0.05818591 -0.18724777
0000e0 f0 a9 45 3c 95 c6 a3 3c d0 32 6f 3d 70 41 d6 be
       0.012064442 0.019992152 0.058398068 -0.418468
0000f0 95 e3 78 be c1 9c d1 bd ca 4f 68 be ad 1a 56 be
       -0.24305566 -0.102349766 -0.22686687 -0.20908614
000100 b6 47 ae be 14 95 f8 bd 6a dd 46 bf 0b fc 52 3d
       -0.34039086 -0.121378094 -0.776816 0.0515099
000110 83 19 d7 bd 02 0a be 3d 4f 8d a3 bd 94 6e d0 3d
       -0.10502913 0.092792526 -0.07985937 0.10177341
000120 02 75 0b bf 52 e1 f9 be 7d 40 73 be 44 20 c1 bb
       -0.54475415 -0.48804718 -0.23755069 -0.005893739
000130 fb 90 a4 be 28 05 05 bf f2 12 d6 bd fe 8f 33 bd
       -0.3214186 -0.5196099 -0.10452832 -0.043838494
000140 e6 1a 73 3d 18 cc 32 be 60 54 b1 3d fd 98 0a be
       0.059351824 -0.17460668 0.086586714 -0.13534923
000150 cd cc 2a 3e fb 2f 26 bd 3c b0 ae be 1a 5d f1 bd
       0.16679688 -0.0405731 -0.3411883 -0.11785336
000160 11 e5 94 be 72 c0 59 bd 9b ff 7f be 7a 00 ad 3d
       -0.29081014 -0.053162046 -0.2499985 0.084473565
000170 b7 6d be be 69 14 89 3b aa 27 7f bd 0c 72 7a be
       -0.3719308 0.0041833413 -0.062293686 -0.24457568
000180 b4 a8 92 3d 7c 98 e7 be b5 8a 74 be 83 7a fe bd
       0.07161084 -0.45233524 -0.23881038 -0.12425711
000190 c6 57 ee 3d bd 1b aa 3e 32 85 7c 3d 5d 5d ac bc
       0.11637835 0.33224288 0.061650462 -0.021040613
0001a0 31 b9 0b bd 64 49 89 be bf 50 86 be 02 ae a9 bd
       -0.03411216 -0.26813805 -0.2623348 -0.082851425
0001b0 59 54 86 3e 64 4f dc bd 5a ac bb bd 6f 89 c4 be
       0.26236227 -0.1075733 -0.09163733 -0.38386104
0001c0 c6 d0 51 be 16 1c b1 be ef a2 c5 bd 3a da 4b be
       -0.20489797 -0.3459174 -0.09650218 -0.19907466
0001d0 60 46 20 bd 28 d6 37 bf 98 25 7f 3d 71 f5 4a bf
       -0.039129615 -0.7181115 0.06229171 -0.79280764
0001e0 af af 38 bb c8 3b 07 3d eb 29 3b be b8 2d c8 be
       -0.0028180887 0.033015996 -0.18277709 -0.3909738
0001f0 6a 8d 33 bc d8 3b dc be d7 ff ef bd fe f1 f2 bd
       -0.010959009 -0.43014407 -0.117187195 -0.118625626
000200 aa e3 46 be 6c a0 3b be d8 83 d1 3c 55 51 9a be
       -0.19422784 -0.18322915 0.025575563 -0.30140176
000210 72 50 bc be 9c 1c 8e be 0a 98 50 be 7f 98 ae 3e
       -0.36780125 -0.27756202 -0.20370498 0.3410072
000220 2d 41 73 be 3f 85 5e bd 91 a4 00 be 42 a7 cf be
       -0.23755331 -0.054326292 -0.12562777 -0.40557295
000230 23 aa 6f be da 5d 07 3e 32 1f 0d be aa fe 88 bd
       -0.23404746 0.13219395 -0.13781431 -0.06689198
000240 ee 9c 9b 3e d9 4e 57 be d2 65 33 3e c4 94 74 bd
       0.30393165 -0.21026172 0.1751931 -0.059712186
000250 68 d6 26 be 4b ba 24 be e9 cc b9 be b7 6f 92 be
       -0.16292727 -0.1608669 -0.36289147 -0.28600857
000260 ca 10 fa be 7c fa 81 be 1d 10 15 be 14 81 a5 bc
       -0.48840934 -0.25386417 -0.14556928 -0.02020315
000270 28 b6 29 be 58 ee bc be 41 79 1a be e0 d3 a0 be
       -0.16573393 -0.36900592 -0.15085317 -0.31411648
000280 b2 c7 05 3e 84 b4 a4 3e 61 6c f3 3d 29 4d 84 bd
       0.13064459 0.32168972 0.11885906 -0.0646003
000290 57 db 86 be 87 54 d8 bd e5 d2 74 be 7a cc 54 be
       -0.26339218 -0.10562997 -0.23908575 -0.20781127
0002a0 dc 39 fc 3d 2c 1f 07 be bc 56 01 be ba bc d0 bd
       0.12315723 -0.13195485 -0.12630743 -0.10192247
0002b0 a2 f0 14 3e ac 5b 91 be 96 7b de 3c f6 e1 86 bd
       0.14544919 -0.28390253 0.02715854 -0.065860674
0002c0 51 eb d3 3b f9 50 42 be 88 c0 66 3e 95 12 ba 3d
       0.006467261 -0.18976201 0.22534382 0.090855755
0002d0 6e 4e 18 bf c0 7d e9 be 71 2e e5 bd 78 bc 83 be
       -0.59494674 -0.45603752 -0.111904986 -0.25729728
0002e0 b6 a7 00 bf 13 e1 b6 be 8f 27 10 bf 7d 29 47 be
       -0.50255907 -0.35718593 -0.5631036 -0.1944942
0002f0 56 51 ca bd 52 67 7b be df 85 28 bd 1e e5 99 bd
       -0.09878795 -0.24551132 -0.041143294 -0.07514404
000300 d7 15 aa be 67 2e 3b be 99 6a 96 bd a0 41 09 bf
       -0.33219787 -0.1827942 -0.07344551 -0.5361576
000310 62 fb 3c 3e 09 59 43 bd 47 b0 eb 3d 90 87 8e be
       0.1845527 -0.047692332 0.115082316 -0.278378
000320 0a 48 b2 be f3 eb 7d be 70 99 4b bd 8e f2 f1 be
       -0.34820586 -0.24797039 -0.049706876 -0.47255367
000330 22 ae f1 bd f1 43 11 3d 77 6a 7b bd c1 7b b3 3d
       -0.11800791 0.035465185 -0.06138083 0.087638386
000340 56 30 fb bd d9 ff 27 3e f0 c2 ab bd a4 b4 d8 bd
       -0.12265079 0.16406192 -0.08386791 -0.105813295
000350 1e d1 be be c5 05 d4 be 00 fa ec be 79 81 1e bd
       -0.3726892 -0.41410652 -0.46284485 -0.038697693
000360 2f d5 fa bc 1c 64 81 be e4 d9 db 3d b8 6d 32 bc
       -0.030619232 -0.2527169 0.10734919 -0.010890417
000370 c4 61 23 bc 61 8f d7 bd c3 b6 84 3d cf 5d 05 bf
       -0.00997204 -0.10525394 0.064801715 -0.52096266
000380 2c 30 e7 3c 3a 91 19 be ab 6d 3e be 71 43 2a be
       0.028221212 -0.14996806 -0.18596523 -0.1662729
000390 75 4a bb bc c2 65 7b bd 3e 73 23 bf 3e 8d 74 3d
       -0.022862652 -0.06137634 -0.6384772 0.05970501
0003a0 cc 54 06 be 5b 10 e9 bd 23 05 91 3e 85 33 4b 3e
       -0.13118285 -0.11380073 0.28324232 0.19843872
0003b0 08 12 fc be fe 99 6a bd 84 35 38 be d9 1f 9c bd
       -0.49232507 -0.057275765 -0.17989165 -0.07623262
0003c0 94 f0 9a bd 2c 27 0f bf 88 4a 78 be 9c e6 3e bf
       -0.07565418 -0.55919147 -0.24247181 -0.7457063
0003d0 47 61 55 bd 4a ea 7b bc ac cb e2 bd 8f 46 c1 be
       -0.052094724 -0.015375683 -0.110740036 -0.37749144
0003e0 24 04 1a bf b4 93 b2 3d c9 87 61 be b2 28 8f be
       -0.6016257 0.087195784 -0.22024454 -0.27960736
0003f0 37 d4 99 be fa d8 b4 be 45 db 24 3d 05 41 df be
       -0.3004472 -0.3532179 0.040248174 -0.43604293

net.1.running_mean f4 [256]
000000 b0 88 23 3d 6c 5b 18 3d 71 d8 9d 3d ba a7 55 3e
       0.039925277 0.03719656 0.077072985 0.20864764
000010 e8 a6 1c 3e 3c ce ab 3d 37 ad 05 bd e8 49 69 3d
       0.15298045 0.083889455 -0.032635894 0.056955248
000020 d9 05 b3 bd da 9f ae 3d 23 fd d4 3d 99 c3 02 3e
       -0.0874135 0.08526583 0.103998445 0.12769927
000030 ff 94 cd 3c c2 8c cd bc dc 35 76 3b c5 d2 b6 3d
       0.025095461 -0.025091533 0.0037568724 0.0892692
000040 14 ab e9 3d 8f 12 cc bd 46 e6 01 be 6b 03 1b 3e
       0.11409584 -0.09964477 -0.12685499 0.15138023
000050 5d f5 39 be 3f b1 f0 3d bf cf dd 3d c5 d3 2b be
       -0.18160005 0.11752557 0.1083064 -0.16780002
000060 b7 1f 37 be 92 39 b7 3d 58 44 22 be 53 98 88 3d
       -0.17883192 0.089465275 -0.15846384 0.066696785
000070 d6 1f 25 bc bd 7f 6c 3d 8f e0 a3 3d ad 8f f2 3d
       -0.010078391 0.05773901 0.080018155 0.1184381
000080 93 7f 4a 3d c0 d0 cd 38 8b 8a a1 bd e6 d6 88 bd
       0.04943807 9.8140445e-05 -0.07887753 -0.066816136
000090 b2 40 6b bd 6c 3e 9f 3d 62 30 ee 3c 10 34 d7 bd
       -0.057434745 0.07775578 0.029075805 -0.10507977
0000a0 5e 3e 0a bd cd 25 05 3d ac 33 47 3c 16 64 28 3c
       -0.033750884 0.032506753 0.012158316 0.010277769
0000b0 b5 64 43 3e b7 0a 9f bc 39 fb a9 3d be 15 1f 3e
       0.19081385 -0.019414289 0.0829987 0.15535638
0000c0 97 a6 2e 3d 10 06 a3 bd 32 6f af 3d d5 df d6 bd
       0.04263934 -0.07960141 0.08566131 -0.10491911
0000d0 c4 11 6d bd 7c 53 26 3d 32 30 49 3e 21 07 c3 3d
       -0.05787827 0.04060696 0.19647291 0.09522844
0000e0 25 4e 88 bc 14 6a 5e 3d 55 28 f6 bd ce be 13 bc
       -0.016638825 0.054300383 -0.120194115 -0.009017659
0000f0 30 eb 63 bc 8d f3 e7 3b 42 aa 95 bd 22 d4 0b 3e
       -0.013911054 0.007078594 -0.07307865 0.13655141
000100 47 72 cb bd cf b8 5f 3e f6 38 aa bd 66 14 92 bd
       -0.09933906 0.21847843 -0.08311646 -0.07132797
000110 a1 fa 14 3d 56 92 a1 3d 6a b6 d5 3d 1b 22 0e 3e
       0.03637183 0.078892395 0.10435183 0.13880198
000120 fc 0b 39 3d 6e f9 1b 3d 6a 7c 4e bd 7c 28 75 bd
       0.045177445 0.03807967 -0.05041162 -0.059853062
000130 b4 48 c0 3d 63 e0 a3 3d e1 0f 23 3c 74 a8 8f 3d
       0.09388867 0.08001783 0.009952516 0.07014552
000140 f2 86 4c bd 13 0f 00 3e a1 5b 40 3d 18 d5 09 3d
       -0.04993338 0.1250575 0.046962384 0.033650488
000150 3c 2c 46 3d bf d4 fd 3d 8c 8b e9 3d 89 9c ec 3d
       0.04838203 0.12394094 0.114035696 0.11553294
000160 c4 e9 d4 bd fc f1 75 3d bd c0 a9 bd a4 73 64 bd
       -0.1039615 0.060045227 -0.08288715 -0.055774346
000170 f0 f1 29 be 70 92 cf bc fd 8e 3a 3e 14 a9 cf 3c
       -0.16596198 -0.025338382 0.18218608 0.025349177
000180 11 54 b6 3d 7a 13 ec 3c aa c1 01 3e 21 7a df bd
       0.08902753 0.02881788 0.12671533 -0.10911966
000190 14 b8 30 3e f4 5a 96 3c b2 5c c0 bc f9 b8 d7 3d
       0.1725772 0.018353917 -0.0234817 0.105333276
0001a0 50 f0 30 3c ae 0b 4e 3d bd 4a 16 3e 91 a5 06 3e
       0.010799482 0.050304107 0.14676948 0.13149096
0001b0 26 53 d3 3c 54 c0 bf 3d 04 c0 14 3d 5c be 25 3d
       0.025796484 0.093628556 0.036315933 0.040464744
0001c0 d2 47 7a 3d fc 2e fa 3c a0 f1 cf bd 96 88 c7 3c
       0.06110365 0.030539982 -0.10153508 0.024357121
0001d0 50 4d eb 3a c0 d3 53 3a c9 3d 6f bd 76 51 45 3c
       0.0017952118 0.00080805644 -0.058408532 0.012043348
0001e0 d0 96 cc ba b9 00 88 3d 70 9e 64 3d 20 08 43 3b
       -0.001560891 0.06640763 0.05581516 0.0029759482
0001f0 92 b9 ab 3d 61 94 ba 3d 0e 4b 6b bd 2b ca 41 bd
       0.08385004 0.09110332 -0.057444625 -0.047311943
000200 11 07 06 be f2 4f 04 3e 3e bf 3c 3e 6f 08 aa 3d
       -0.13088633 0.12921122 0.18432328 0.0830239
000210 91 eb 9c bd c4 bd 05 be 54 28 46 3d 0c b8 30 3e
       -0.07662118 -0.13060671 0.048378304 0.17257708
000220 8d e0 47 bd c2 9a 35 3e 2d 1d b0 bc 5c 1a 09 be
       -0.048798133 0.17734817 -0.021498287 -0.13388962
000230 30 a0 a3 bd 80 ad c5 3d 24 7f bd 3d 40 60 fb 3d
       -0.07989538 0.09652233 0.09252766 0.122742176
000240 ed 7b 90 3d e0 5f 1f bc 1a 8e 57 3d 0e 6a 3b 3e
       0.07054887 -0.009727448 0.052625753 0.18302175
000250 a3 81 30 3d 7e c8 98 bb b9 b8 0f bd 00 23 13 3e
       0.04309238 -0.0046625724 -0.035088275 0.1436882
000260 72 0e b9 3d 3d fd b0 3b 24 4e dc 3d 69 b8 12 3e
       0.09035958 0.005401282 0.10757092 0.1432816
000270 00 3c 2b 3e 52 1f 2e bc 78 e9 5d 3d 82 1e b8 3d
       0.16722107 -0.0106275845 0.05417773 0.08990194
000280 2e e5 04 3d a1 17 b2 3d ab f0 a8 bd 29 32 3b bd
       0.032445125 0.08695913 -0.08249029 -0.045702133
000290 96 ee 24 3c f9 2c 65 3d 13 b6 39 3d 07 4c 0d 3e
       0.010066649 0.055951092 0.045339655 0.13798533
0002a0 ae b0 0a be fa 00 07 3e 70 c2 8f bd a6 41 2b bd
       -0.1354396 0.13183966 -0.07019508 -0.041810654
0002b0 fb b7 0a 3d 34 88 d6 bd 60 bf af bd 52 31 af 3d
       0.033866864 -0.104751974 -0.08581424 0.08554329
0002c0 05 95 80 3d 00 e3 30 ba 31 e5 b2 3b aa 8e c4 3d
       0.06278423 -0.0006747693 0.0054594507 0.095975235
0002d0 03 c7 bc bd 12 da cc bd 75 08 91 3d 04 c8 06 be
       -0.09217646 -0.10002531 0.07081691 -0.13162237
0002e0 f7 8e ea bd 53 4f 53 bc c0 03 24 bb ca 26 03 bd
       -0.1145305 -0.01289733 -0.002502665 -0.032019414
0002f0 9e 4c f4 3d 3f a1 21 3d 5c 19 2b 3b 10 27 bf bc
       0.11928676 0.039460417 0.0026107645 -0.023334056
000300 bf 6d 00 3d ea 83 e7 bc e4 ec 9f 3d 7c dc 54 3d
       0.031354662 -0.028261144 0.07808855 0.051968083
000310 0a 32 33 3e 06 e4 83 bc 6a b6 aa bc 00 b5 9a bd
       0.17499557 -0.016099941 -0.020838935 -0.07554054
000320 61 f9 6a 3c 8b bb 2d bd 49 3d 8b 3b cc 71 8b 3c
       0.014341683 -0.042415183 0.004249249 0.017022036
000330 10 5e 5a bd a8 fa 6d 3d 16 ee 6d 3e 66 48 c0 bc
       -0.05331236 0.058100373 0.23235354 -0.023472022
000340 8a 76 14 3e b2 d6 14 be 26 23 0d be 55 e8 b9 3d
       0.14498344 -0.14535025 -0.1378294 0.09077517
000350 2e fc 10 bd 6d af be 3d b8 f7 69 bd fe 80 e3 3d
       -0.035396747 0.093108036 -0.05712101 0.11108588
000360 28 7e 98 3d ac ec c1 3d 9e 4f 13 be 68 a0 a3 3d
       0.074459374 0.0946897 -0.1438584 0.079895794
000370 66 23 83 3d 2e cc 08 be 97 37 91 3d db c3 11 be
       0.06403236 -0.13359138 0.07090681 -0.14234869
000380 c0 2e 06 3e 3d a8 d0 bc 06 23 08 3e 86 53 2e 3d
       0.13103771 -0.025470847 0.1329461 0.042560123
000390 e2 8b 35 3d 13 e8 1a 3e 02 3e 56 bd bd a7 3c 3c
       0.044322856 0.15127592 -0.05230523 0.011514601
0003a0 18 e0 06 3d 34 48 0c 3e 12 91 42 3d fc e5 10 bd
       0.032928556 0.13699418 0.04750163 -0.03537558
0003b0 10 9e 6b 3d 00 75 b9 ba d1 13 fe 3d 60 9a 6d bd
       0.057523787 -0.0014149249 0.124061234 -0.05800855
0003c0 d4 41 56 3c 89 dd a9 3d 9f 39 3f bd c4 40 fd 3c
       0.013077218 0.082942076 -0.04668581 0.030914672
0003d0 08 4e 91 bd 4a 7b da 3d 6e 87 c2 bc b6 bd f3 3d
       -0.070949614 0.10668047 -0.023746219 0.11901419
0003e0 4c a0 a7 bc dc 33 d0 3d 36 90 c0 3c 32 b8 3c 3d
       -0.020462178 0.101661414 0.023506265 0.0460741
0003f0 de 6a 0e bd 35 f1 2d 3d fe ba 44 3c 29 51 7a 3d
       -0.034769885 0.04246636 0.012007473 0.061112557

net.1.running_var f4 [256]
000000 a3 24 c7 40 53 36 06 41 43 38 48 41 0f a1 82 41
       6.2232223 8.388263 12.513736 16.328642
000010 c6 08 4b 41 12 64 01 41 ab d4 39 41 84 38 e6 40
       12.689642 8.086931 11.614421 7.194399
000020 2b 2e f9 40 9f ee 8f 40 2b fd d2 40 4e fa 8b 40
       7.7868857 4.4978786 6.5934043 4.374305
000030 dd f3 10 41 ef 89 05 41 12 a9 54 40 ee ba cd 40
       9.059537 8.346175 3.3228192 6.4290686
000040 f3 42 a5 40 e6 32 58 40 c3 36 35 41 a3 d2 fc 40
       5.1644225 3.3781066 11.32587 7.9007125
000050 9e 98 25 41 9b f6 92 40 87 a9 a4 41 28 25 da 40
       10.34976 4.592603 20.582777 6.8170357
000060 ce 8d 04 41 68 24 0f 41 72 2f 9e 41 3c 70 32 40
       8.28462 8.946388 19.773167 2.7881002
000070 3b a7 a0 40 a0 29 8c 40 f1 1b 84 40 4d 61 c1 40
       5.020414 4.380081 4.128411 6.0431275
000080 ea 78 5a 40 f4 de a3 40 5e cc af 40 4c 13 19 41
       3.41363 5.120966 5.493697 9.567211
000090 3b ec 74 40 be e3 22 41 a7 db b9 40 e8 f1 a4 40
       3.8269184 10.180601 5.808063 5.1545296
0000a0 71 bf 0c 40 34 7f 3e 41 c8 81 bd 40 d0 c8 8e 40
       2.1991847 11.906055 5.9220924 4.4620132
0000b0 4d a2 26 41 8d 8e d9 41 d6 58 f8 40 e9 d0 26 41
       10.414624 27.194605 7.760844 10.426003
0000c0 31 b1 1c 40 f5 9a 0c 41 fd 58 b0 40 27 db 39 41
       2.448315 8.787831 5.510863 11.616004
0000d0 2b b8 d5 40 36 c4 11 41 9a 5f 22 41 15 de b6 40
       6.6787314 9.110403 10.14834 5.7146096
0000e0 2b b6 1b 41 11 fd 95 40 4c 8f 88 40 d4 11 73 40
       9.731975 4.687142 4.2674923 3.7979631
0000f0 11 41 45 41 1d 02 6d 40 e3 0d 6f 41 3e d4 cf 40
       12.328385 3.703254 14.94089 6.4946585
000100 53 40 cf 40 13 47 55 41 4d 7c 3a 41 bd 0b ec 40
       6.476602 13.329852 11.655347 7.376433
000110 ec 12 fb 3f e0 96 1b 41 08 45 54 41 70 48 03 41
       1.961515 9.724335 13.266853 8.205185
000120 90 53 ba 40 f4 26 82 40 03 49 85 40 b3 de 51 40
       5.8227005 4.067255 4.1651626 3.2792175
000130 9f 12 3d 41 b7 d8 f5 3f 56 53 1a 41 a0 02 7b 40
       11.817046 1.9206761 9.645346 3.9220352
000140 80 31 87 41 3c d9 42 40 57 11 36 40 2f 72 0f 41
       16.89917 3.044509 2.8448083 8.965377
000150 b9 58 42 40 ee c8 98 40 3e f9 24 41 65 f0 95 40
       3.0366652 4.7745275 10.31085 4.685595
000160 3c c0 05 41 29 c9 1d 41 e4 65 57 40 e7 1f a9 40
       8.359432 9.861611 3.365594 5.2851443
000170 a4 50 cc 40 71 db bd 40 32 89 9f 40 b4 44 e4 40
       6.384844 5.9330373 4.9854975 7.1333866
000180 98 af 11 41 14 73 0b 41 f8 c2 84 41 56 d6 f8 40
       9.10537 8.715595 16.5952 7.776164
000190 ca 93 ae 40 6c d5 ef 40 34 7c bc 40 92 74 c5 40
       5.4555407 7.4948025 5.8901615 6.17048
0001a0 66 e9 ce 40 fe 01 17 41 59 32 ca 40 89 75 24 41
       6.465991 9.437986 6.318646 10.278695
0001b0 ad 70 52 41 9e 8b 20 40 c8 ae a6 40 5f 05 d8 40
       13.152509 2.5085216 5.2088356 6.7506557
0001c0 18 5d 5a 41 1e 93 f2 40 b9 14 d4 40 5f 55 03 41
       13.647728 7.5804586 6.6275296 8.208343
0001d0 ca 0a c2 40 5e 7a b0 40 cf 7b 0a 41 b2 12 1e 40
       6.063817 5.5149374 8.655227 2.469891
0001e0 e1 d8 1c 41 78 d2 af 40 5e 38 9e 40 f0 c8 c7 40
       9.802949 5.494442 4.9443808 6.2432785
0001f0 d3 31 31 41 68 a6 90 40 14 1a fd 40 95 21 6b 41
       11.074664 4.5203133 7.9094334 14.695699
000200 e6 1a c4 40 a2 2f 61 40 85 3f bf 40 01 17 5e 40
       6.1282835 3.5185323 5.976504 3.470154
000210 c0 12 d9 40 45 b9 22 41 5c 31 ca 40 ed 26 b1 40
       6.783539 10.170232 6.3185253 5.5360017
000220 f4 d5 65 40 62 82 f9 40 d8 cf 98 40 f2 e2 09 41
       3.5911837 7.797166 4.7753716 8.617907
000230 d2 de a2 41 7a 7e ed 40 c4 de e2 40 2c d6 ee 40
       20.358799 7.421689 7.089693 7.463644
000240 90 b2 35 41 04 cf e7 40 9b 48 33 41 ff 3b 0c 41
       11.356094 7.2440205 11.205226 8.7646475
000250 17 95 88 41 fe b4 72 41 67 ad 07 41 fe 3b be 40
       17.072798 15.169188 8.479835 5.9448233
000260 7e 04 37 40 bc 21 46 41 8b e7 ad 40 fd e9 98 40
       2.8596492 12.383236 5.4345145 4.778563
000270 d0 3f db 40 41 e5 9e 40 17 35 db 40 dd 1c 4c 40
       6.8515396 4.965485 6.8502307 3.1892617
000280 0d 98 ce 40 40 0d a6 40 9b 08 05 41 10 9c f2 40
       6.456061 5.1891174 8.314601 7.5815506
000290 22 f7 c6 40 67 6e 97 40 b6 83 94 40 6d d6 12 42
       6.2176676 4.732227 4.641078 36.7094
0002a0 3d fe 49 41 69 49 96 41 b7 d1 13 41 c8 b9 90 40
       12.62457 18.785845 9.2387 4.5226784
0002b0 66 17 5a 41 47 80 94 40 82 04 d3 40 36 6c 43 40
       13.6307125 4.640659 6.5943003 3.0534797
0002c0 aa f5 dc 40 db f6 a4 40 30 40 22 41 ba 66 25 41
       6.9049883 5.1551337 10.140671 10.33758
0002d0 9a 67 ec 40 86 62 1e 41 d4 97 e1 40 86 4f cb 40
       7.3876467 9.899054 7.0497837 6.3534575
0002e0 36 49 ac 40 1e 23 20 41 de 8c 8a 40 dd f0 65 40
       5.383937 10.008574 4.3296957 3.5928261
0002f0 c9 26 3c 41 5d d1 7c 40 24 77 d7 40 61 49 e6 40
       11.759469 3.9502785 6.7332935 7.1964574
000300 49 c5 ea 40 30 3b 80 40 da 04 f5 40 9e 4b 19 40
       7.3365827 4.007225 7.656842 2.3952403
000310 0b 43 11 41 b1 97 d5 40 8d 5c 0c 41 63 3e 8d 40
       9.078868 6.674767 8.772595 4.4138656
000320 bb 9e 31 41 f8 48 4f 40 05 e9 fe 40 81 73 24 41
       11.101253 3.2388287 7.965945 10.278199
000330 28 99 81 40 6f 3f f8 40 55 80 9c 41 36 ae 2a 41
       4.049946 7.7577434 19.562662 10.667532
000340 08 4f 0a 41 78 64 e0 40 d5 5d b5 40 28 c9 93 40
       8.644295 7.0122643 5.667704 4.618305
000350 dd 8a 0b 41 a5 c3 67 41 4d c3 d6 40 09 ef 22 41
       8.721402 14.485265 6.7113404 10.183358
000360 28 ac 3e 41 06 db d0 40 6e bf e5 40 5a 8a 11 41
       11.91703 6.5267363 7.179618 9.096277
000370 12 ce 85 40 cc 07 fe 40 61 4d 13 41 2d e2 83 41
       4.181405 7.938452 9.206391 16.485437
000380 de 1c 96 40 5c 85 02 41 9c ad aa 40 3c ae aa 40
       4.691024 8.157558 5.3336926 5.333769
000390 2d 36 df 40 dc a5 b6 40 db 66 27 41 16 2d 1f 40
       6.9753633 5.7077465 10.462611 2.4871268
0003a0 0f 34 ed 40 3c bb 95 40 6d fd cb 40 56 91 e7 40
       7.412605 4.6791058 6.374686 7.236491
0003b0 ec 6a d8 40 61 90 a9 40 bc 80 16 41 e6 3d bb 40
       6.763052 5.2988744 9.406429 5.851306
0003c0 a8 e2 bf 40 de 41 a9 40 73 ec 24 41 76 4e 40 41
       5.996418 5.2892904 10.307727 12.0191555
0003d0 e3 c4 d4 40 b8 1a 87 40 20 87 5e 41 2f a6 45 41
       6.649034 4.2220116 13.9079895 12.353072
0003e0 34 f4 6c 40 09 00 2e 41 0e 6f e2 40 d8 94 ec 40
       3.702405 10.875009 7.0760565 7.3931694
0003f0 b2 6f 6e 40 d2 c2 90 40 7f bd ab 40 b2 e8 9e 40
       3.7255673 4.523782 5.366882 4.965905

net.4.weight f4 [128, 256]
000000 51 f1 2f be b0 9d 92 3d cd 8a 3c 3e df 4b 1d be
       -0.17181899 0.07158983 0.18412323 -0.15360974
000010 00 60 06 3e e8 75 b5 3e f2 49 bb be 5d c7 ac 3e
       0.13122559 0.35441518 -0.36579853 0.33745852
000020 e4 81 70 bf c0 3b 30 be 91 ee 40 3e 4d d1 ab 3e
       -0.939482 -0.17210293 0.18841006 0.3355812
000030 63 14 a0 3c c3 67 da bc 63 9d 82 be 2d 0f dc bc
       0.019540971 -0.026660806 -0.25510702 -0.026862705
000040 01 f2 c4 3e f5 ae 3e be 5a c9 e8 3d 7c ba e1 bc
       0.38465884 -0.18621428 0.1136653 -0.027554743
000050 3f d0 98 be 40 02 76 be aa d1 02 3e 41 36 b9 be
       -0.2984638 -0.24024296 0.12775293 -0.36174205
000060 0f 10 57 be d6 e2 dd 3e be 72 66 be d2 1e 9c 3d
       -0.2100222 0.43337125 -0.22504708 0.07623066
000070 17 ee ff bc ab 08 1e bd d3 86 94 be 3a b2 d3 3e
       -0.03124146 -0.038582485 -0.29009113 0.41346914
000080 b2 a8 a5 be ea 02 09 bd 85 03 3c 3b 73 9d b3 3e
       -0.32355267 -0.033450045 0.0028688621 0.35081062
000090 94 f8 f7 bb 84 29 6f bc 76 66 90 3d 7c 46 23 be
       -0.0075674746 -0.0145973 0.07050793 -0.15944856
0000a0 8b 30 c6 3d 08 5e f4 3d eb 81 29 bd 51 ab 25 be
       0.096772276 0.119319975 -0.041383665 -0.16178633
0000b0 af f1 0f 3f aa bc bd bc 78 ef 33 3e 35 80 41 3f
       0.56228155 -0.023161251 0.17571819 0.75586253
0000c0 27 e7 93 be d6 3f 51 3e 7c 12 db 3e b0 88 29 bd
       -0.28887293 0.20434508 0.4278754 -0.04139012
0000d0 17 38 91 bd 72 31 f1 3e ab 73 bb 3e f4 4e 0b 3e
       -0.070907764 0.47108036 0.36611685 0.13604337
0000e0 80 1c 5a bd 4a 22 99 3e e0 17 95 3c 7d c9 0c bf
       -0.053249836 0.29908973 0.018199861 -0.54994947
0000f0 95 25 1b 3e a7 78 37 3d af 67 75 3c 76 07 e4 3d
       0.15151055 0.044792797 0.014978333 0.111342356
000100 8e ed a8 3e 46 3d 19 3f fb f0 bb bc bc b6 77 3e
       0.3299374 0.5985912 -0.022942057 0.24190801
000110 fd 92 b7 3e 20 41 73 3e 9c 45 a7 be ed ce 74 bd
       0.3585433 0.23755312 -0.32670295 -0.059767652
000120 ab c9 84 bd 41 5a dd 3c e9 32 6a be d0 56 1b be
       -0.064837776 0.027020575 -0.22870983 -0.15169835
000130 68 ac d2 be 76 f4 81 3d af cf e1 3d fd e0 4c bd
       -0.4114716 0.06345455 0.110259406 -0.050019253
000140 3e 47 46 3c 51 f4 b1 3e bf 0a 2c be 7a ab 6f 3e
       0.012101946 0.3475671 -0.16800974 0.23405257
000150 ab 67 e9 bd 69 75 c9 be 48 99 19 3e 21 7d 61 3d
       -0.11396726 -0.3934739 0.14999878 0.055050973
000160 dc 4a e5 bc 0c 84 46 be 44 41 27 3e db 39 6f be
       -0.027989797 -0.1938631 0.1633349 -0.23361914
000170 cc 12 1e be 48 f0 f6 3d 12 53 17 3f 60 9f 28 be
       -0.15436858 0.12057549 0.5911113 -0.16467047
000180 8d 10 97 3d f9 c9 62 bd e2 a5 bd be 72 11 74 bd
       0.07376204 -0.055368397 -0.3704062 -0.05958695
000190 39 38 a0 3d 6f e1 e9 3e 39 17 e5 3d 80 63 ce be
       0.078232236 0.45679805 0.1118607 -0.40310287
0001a0 94 c4 cb 3d 99 03 4b 3c a4 17 94 bb 53 ec c3 3d
       0.09949604 0.0123909945 -0.0045194197 0.0956656
0001b0 81 14 ef bd 04 b2 15 be 76 5e 87 3e 83 82 6c bd
       -0.11673833 -0.14618689 0.26439255 -0.057741653
0001c0 e0 4c ef be ea 71 c9 be ca ca 72 be 18 ea cb bd
       -0.46738338 -0.39344722 -0.2371017 -0.09956759
0001d0 f6 c4 f6 be 74 ab 7f bd 25 c4 af 3a b2 b7 7e bd
       -0.48197144 -0.06241937 0.0013409896 -0.062186904
0001e0 e1 46 cc 3e 35 94 3c bd a7 e3 d6 be 65 41 f1 3d
       0.39897826 -0.04603978 -0.4197056 0.11780051
0001f0 c6 70 97 3e 07 af fa 3c 92 a4 16 3e 68 f4 c9 be
       0.29578227 0.030601038 0.14711216 -0.3944428
000200 97 ab dc 3c 01 e2 97 3d b4 c8 b3 3e 47 f6 e9 3d
       0.02693729 0.07416154 0.35114062 0.11423927
000210 23 4b ac bd 24 4c e4 3d 24 30 f5 bd 35 d0 ca 3d
       -0.08412769 0.11147335 -0.11972073 0.099029936
000220 4c 41 49 3d 95 3c 05 be e3 29 8b 3d 07 47 3e be
       0.049134538 -0.13011391 0.06795099 -0.18581782
000230 02 d2 59 bd b9 5b 82 3e 69 b6 0b be ed 34 b8 3e
       -0.053178795 0.25460604 -0.13643803 0.3597788
000240 a4 44 30 be 0b b5 71 be 64 99 05 3f 31 79 b8 3d
       -0.17213684 -0.23604219 0.5218718 0.090074904
000250 29 15 10 be 6b f2 49 be 77 95 e6 be fd d5 78 3e
       -0.14070572 -0.19721381 -0.45035908 0.2430038
000260 03 58 71 be 20 89 de be fa 42 a9 bb 7d 18 d3 3d
       -0.2356873 -0.43463993 -0.005165455 0.10307405
000270 bc d2 1a bd b9 a3 d3 3e 08 8f 1f 3f f5 98 48 be
       -0.03779863 0.41335848 0.62327623 -0.19589598
000280 aa e0 86 3d f7 c9 04 bf 99 1f 11 be 96 ed 99 3e
       0.0658582 -0.51870674 -0.1417221 0.30064076
000290 db 87 82 bd b9 24 6d bd f1 6f 2c bc 64 0e 55 be
       -0.063735686 -0.05789635 -0.010524736 -0.20806271
0002a0 66 1f 90 3c 19 77 e0 be 3a fd a1 3e db c1 5d 3e
       0.017593097 -0.43840864 0.3163851 0.21655981
0002b0 2b 38 aa 3e 33 a0 bb be 10 01 3f bd 07 ce 5b bd
       0.33245978 -0.3664566 -0.046631873 -0.05366328
0002c0 c8 38 b4 3e 6a a5 cd bd 88 c0 ad be 14 9c 1b 3f
       0.3519957 -0.10041316 -0.33935952 0.6078503
0002d0 90 e1 4c 3e b2 23 1c be a9 47 91 3e f7 76 bb 3e
       0.2000792 -0.15247992 0.28374985 0.366142
0002e0 d0 7c 26 3e db f7 7d be 35 7c a0 bc e2 d5 f0 be
       0.1625855 -0.2480158 -0.019590477 -0.4703818
0002f0 cd 22 a8 3e a7 ea cd be 0f 47 82 3e 92 98 59 be
       0.3283905 -0.40218088 0.25444838 -0.21249607
000300 88 e9 b2 be f1 da 00 3f fc fb 10 be d2 dc 4e be
       -0.34943795 0.5033408 -0.14158624 -0.20201424
000310 ae a0 d0 bd a2 f5 b3 3e d7 03 85 bd 16 4d 29 be
       -0.10186897 0.3514834 -0.06494873 -0.16533312
000320 33 3b 51 be 44 63 ea bd 75 3d b1 be 98 74 8d be
       -0.20432739 -0.11444715 -0.346172 -0.27628016
000330 0e 41 98 3e 3d d0 c3 3d 78 0b 2f bd 0a 77 ff 3c
       0.29737133 0.09561203 -0.042735547 0.031184692
000340 8c 2c 1f bd e1 77 0d bf f6 4d 96 3d 42 1e 22 3e
       -0.038860843 -0.55261046 0.073390886 0.15831855
000350 b3 b1 5d be 38 0b 9d 3d 8c 2c 7c bd 33 a9 27 3e
       -0.21649818 0.076681554 -0.06156592 0.16373138
000360 2b d8 81 3d fa de cb bd a3 b1 bf be 9a 45 96 3e
       0.06340059 -0.09954639 -0.37440214 0.29349977
000370 d1 53 73 3e d7 61 8e bd 92 c0 52 bc a9 a6 85 3e
       0.23762442 -0.06952255 -0.012863295 0.26103714
000380 23 c2 5c 3e de 5e e7 3e 6e 90 01 be 60 a9 24 be
       0.21558432 0.45189565 -0.12652752 -0.16080236
000390 59 8c 5a 3e 75 d5 0c 3f bf 50 1a 3e 67 de 88 be
       0.21342601 0.5501321 0.15069865 -0.2673218
0003a0 7e c7 63 be 29 98 6f 3e 21 dd 59 be 2b 20 f0 3c
       -0.22244069 0.23397888 -0.2127576 0.029312214
0003b0 d0 27 02 bf 78 59 e9 be cc c7 a6 3d 8d 80 50 bd
       -0.50842 -0.45576072 0.08143577 -0.050903846
0003c0 79 c8 35 be 14 3f bb be c2 55 89 be 78 ae 58 be
       -0.17752255 -0.36571562 -0.2682324 -0.21160305
0003d0 27 17 98 3e 56 db c7 3d 02 67 db bd ab 8e 8a 3e
       0.29705164 0.09758632 -0.107130066 0.27061972
0003e0 0e a3 50 bd 91 87 52 be 8a e9 58 bd b4 7d d2 bc
       -0.05093675 -0.20559527 -0.052957095 -0.025694706
0003f0 50 03 d1 3d aa 5e ac bc 03 1a 47 be 7d 90 f0 ba
       0.1020571 -0.021041233 -0.19443516 -0.0018353608
